gaston@ML-Ubuntu-VB:~/caffe_repo/caffe/project/arboles_mejoradoII$ ./test.sh 
I1024 23:28:40.436601  4097 caffe.cpp:352] Use CPU.
I1024 23:28:40.439154  4097 net.cpp:51] Initializing net from parameters: 
name: "Net"
state {
  phase: TRAIN
  level: 0
  stage: ""
}
layer {
  name: "data"
  type: "Input"
  top: "data"
  input_param {
    shape {
      dim: 1
      dim: 1
      dim: 300
      dim: 300
    }
  }
}
layer {
  name: "conv1"
  type: "Convolution"
  bottom: "data"
  top: "conv1"
  convolution_param {
    num_output: 50
    kernel_size: 11
    stride: 2
  }
}
layer {
  name: "relu1"
  type: "ReLU"
  bottom: "conv1"
  top: "conv1"
}
layer {
  name: "pool1"
  type: "Pooling"
  bottom: "conv1"
  top: "pool1"
  pooling_param {
    pool: MAX
    kernel_size: 2
    stride: 2
  }
}
layer {
  name: "conv2"
  type: "Convolution"
  bottom: "pool1"
  top: "conv2"
  convolution_param {
    num_output: 50
    kernel_size: 5
    stride: 2
  }
}
layer {
  name: "relu2"
  type: "ReLU"
  bottom: "conv2"
  top: "conv2"
}
layer {
  name: "pool2"
  type: "Pooling"
  bottom: "conv2"
  top: "pool2"
  pooling_param {
    pool: MAX
    kernel_size: 2
    stride: 2
  }
}
layer {
  name: "conv3"
  type: "Convolution"
  bottom: "pool2"
  top: "conv3"
  convolution_param {
    num_output: 50
    kernel_size: 5
    stride: 2
  }
}
layer {
  name: "pool3"
  type: "Pooling"
  bottom: "conv3"
  top: "pool3"
  pooling_param {
    pool: MAX
    kernel_size: 2
    stride: 2
  }
}
layer {
  name: "ip1"
  type: "InnerProduct"
  bottom: "pool3"
  top: "ip1"
  inner_product_param {
    num_output: 500
  }
}
layer {
  name: "relu1"
  type: "ReLU"
  bottom: "ip1"
  top: "ip1"
}
layer {
  name: "ip2"
  type: "InnerProduct"
  bottom: "ip1"
  top: "ip2"
  inner_product_param {
    num_output: 2
  }
}
layer {
  name: "prob"
  type: "Softmax"
  bottom: "ip2"
  top: "prob"
}
I1024 23:28:40.440134  4097 layer_factory.hpp:77] Creating layer data
I1024 23:28:40.440173  4097 net.cpp:84] Creating Layer data
I1024 23:28:40.440184  4097 net.cpp:380] data -> data
I1024 23:28:40.440218  4097 net.cpp:122] Setting up data
I1024 23:28:40.440239  4097 net.cpp:129] Top shape: 1 1 300 300 (90000)
I1024 23:28:40.440246  4097 net.cpp:137] Memory required for data: 360000
I1024 23:28:40.440256  4097 layer_factory.hpp:77] Creating layer conv1
I1024 23:28:40.440269  4097 net.cpp:84] Creating Layer conv1
I1024 23:28:40.440277  4097 net.cpp:406] conv1 <- data
I1024 23:28:40.440441  4097 net.cpp:380] conv1 -> conv1
I1024 23:28:40.440541  4097 net.cpp:122] Setting up conv1
I1024 23:28:40.440553  4097 net.cpp:129] Top shape: 1 50 145 145 (1051250)
I1024 23:28:40.441150  4097 net.cpp:137] Memory required for data: 4565000
I1024 23:28:40.441184  4097 layer_factory.hpp:77] Creating layer relu1
I1024 23:28:40.441195  4097 net.cpp:84] Creating Layer relu1
I1024 23:28:40.441201  4097 net.cpp:406] relu1 <- conv1
I1024 23:28:40.441210  4097 net.cpp:367] relu1 -> conv1 (in-place)
I1024 23:28:40.441220  4097 net.cpp:122] Setting up relu1
I1024 23:28:40.441229  4097 net.cpp:129] Top shape: 1 50 145 145 (1051250)
I1024 23:28:40.441236  4097 net.cpp:137] Memory required for data: 8770000
I1024 23:28:40.441241  4097 layer_factory.hpp:77] Creating layer pool1
I1024 23:28:40.441251  4097 net.cpp:84] Creating Layer pool1
I1024 23:28:40.441256  4097 net.cpp:406] pool1 <- conv1
I1024 23:28:40.441264  4097 net.cpp:380] pool1 -> pool1
I1024 23:28:40.441437  4097 net.cpp:122] Setting up pool1
I1024 23:28:40.441452  4097 net.cpp:129] Top shape: 1 50 73 73 (266450)
I1024 23:28:40.441458  4097 net.cpp:137] Memory required for data: 9835800
I1024 23:28:40.441464  4097 layer_factory.hpp:77] Creating layer conv2
I1024 23:28:40.441476  4097 net.cpp:84] Creating Layer conv2
I1024 23:28:40.441483  4097 net.cpp:406] conv2 <- pool1
I1024 23:28:40.441491  4097 net.cpp:380] conv2 -> conv2
I1024 23:28:40.441612  4097 net.cpp:122] Setting up conv2
I1024 23:28:40.441623  4097 net.cpp:129] Top shape: 1 50 35 35 (61250)
I1024 23:28:40.441630  4097 net.cpp:137] Memory required for data: 10080800
I1024 23:28:40.441642  4097 layer_factory.hpp:77] Creating layer relu2
I1024 23:28:40.441649  4097 net.cpp:84] Creating Layer relu2
I1024 23:28:40.441655  4097 net.cpp:406] relu2 <- conv2
I1024 23:28:40.441684  4097 net.cpp:367] relu2 -> conv2 (in-place)
I1024 23:28:40.441694  4097 net.cpp:122] Setting up relu2
I1024 23:28:40.441702  4097 net.cpp:129] Top shape: 1 50 35 35 (61250)
I1024 23:28:40.441709  4097 net.cpp:137] Memory required for data: 10325800
I1024 23:28:40.441715  4097 layer_factory.hpp:77] Creating layer pool2
I1024 23:28:40.441722  4097 net.cpp:84] Creating Layer pool2
I1024 23:28:40.441728  4097 net.cpp:406] pool2 <- conv2
I1024 23:28:40.441735  4097 net.cpp:380] pool2 -> pool2
I1024 23:28:40.441747  4097 net.cpp:122] Setting up pool2
I1024 23:28:40.441756  4097 net.cpp:129] Top shape: 1 50 18 18 (16200)
I1024 23:28:40.441761  4097 net.cpp:137] Memory required for data: 10390600
I1024 23:28:40.441767  4097 layer_factory.hpp:77] Creating layer conv3
I1024 23:28:40.441776  4097 net.cpp:84] Creating Layer conv3
I1024 23:28:40.441926  4097 net.cpp:406] conv3 <- pool2
I1024 23:28:40.441939  4097 net.cpp:380] conv3 -> conv3
I1024 23:28:40.442054  4097 net.cpp:122] Setting up conv3
I1024 23:28:40.442065  4097 net.cpp:129] Top shape: 1 50 7 7 (2450)
I1024 23:28:40.442070  4097 net.cpp:137] Memory required for data: 10400400
I1024 23:28:40.442082  4097 layer_factory.hpp:77] Creating layer pool3
I1024 23:28:40.442090  4097 net.cpp:84] Creating Layer pool3
I1024 23:28:40.442097  4097 net.cpp:406] pool3 <- conv3
I1024 23:28:40.442104  4097 net.cpp:380] pool3 -> pool3
I1024 23:28:40.442116  4097 net.cpp:122] Setting up pool3
I1024 23:28:40.442122  4097 net.cpp:129] Top shape: 1 50 4 4 (800)
I1024 23:28:40.442128  4097 net.cpp:137] Memory required for data: 10403600
I1024 23:28:40.442134  4097 layer_factory.hpp:77] Creating layer ip1
I1024 23:28:40.442144  4097 net.cpp:84] Creating Layer ip1
I1024 23:28:40.442150  4097 net.cpp:406] ip1 <- pool3
I1024 23:28:40.442158  4097 net.cpp:380] ip1 -> ip1
I1024 23:28:40.443470  4097 net.cpp:122] Setting up ip1
I1024 23:28:40.443497  4097 net.cpp:129] Top shape: 1 500 (500)
I1024 23:28:40.443503  4097 net.cpp:137] Memory required for data: 10405600
I1024 23:28:40.443514  4097 layer_factory.hpp:77] Creating layer relu1
I1024 23:28:40.443526  4097 net.cpp:84] Creating Layer relu1
I1024 23:28:40.443531  4097 net.cpp:406] relu1 <- ip1
I1024 23:28:40.443537  4097 net.cpp:367] relu1 -> ip1 (in-place)
I1024 23:28:40.443547  4097 net.cpp:122] Setting up relu1
I1024 23:28:40.443552  4097 net.cpp:129] Top shape: 1 500 (500)
I1024 23:28:40.443557  4097 net.cpp:137] Memory required for data: 10407600
I1024 23:28:40.443562  4097 layer_factory.hpp:77] Creating layer ip2
I1024 23:28:40.443568  4097 net.cpp:84] Creating Layer ip2
I1024 23:28:40.443573  4097 net.cpp:406] ip2 <- ip1
I1024 23:28:40.443579  4097 net.cpp:380] ip2 -> ip2
I1024 23:28:40.443595  4097 net.cpp:122] Setting up ip2
I1024 23:28:40.443603  4097 net.cpp:129] Top shape: 1 2 (2)
I1024 23:28:40.443606  4097 net.cpp:137] Memory required for data: 10407608
I1024 23:28:40.443616  4097 layer_factory.hpp:77] Creating layer prob
I1024 23:28:40.443624  4097 net.cpp:84] Creating Layer prob
I1024 23:28:40.443629  4097 net.cpp:406] prob <- ip2
I1024 23:28:40.443634  4097 net.cpp:380] prob -> prob
I1024 23:28:40.443644  4097 net.cpp:122] Setting up prob
I1024 23:28:40.443650  4097 net.cpp:129] Top shape: 1 2 (2)
I1024 23:28:40.443653  4097 net.cpp:137] Memory required for data: 10407616
I1024 23:28:40.443658  4097 net.cpp:200] prob does not need backward computation.
I1024 23:28:40.443670  4097 net.cpp:200] ip2 does not need backward computation.
I1024 23:28:40.443675  4097 net.cpp:200] relu1 does not need backward computation.
I1024 23:28:40.443681  4097 net.cpp:200] ip1 does not need backward computation.
…
