gaston@orangepiplus2e:~/caffe_repo/caffe/project/ImageNet$ ./test.sh
I1020 03:10:35.166410  6384 caffe.cpp:352] Use CPU.
I1020 03:10:35.180652  6384 net.cpp:51] Initializing net from parameters:
name: "CaffeNet"
state {
  phase: TRAIN
  level: 0
  stage: ""
}
layer {
  name: "data"
  type: "Input"
  top: "data"
  input_param {
    shape {
      dim: 1
      dim: 3
      dim: 227
      dim: 227
    }
  }
}
layer {
  name: "conv1"
  type: "Convolution"
  bottom: "data"
  top: "conv1"
  convolution_param {
    num_output: 96
    kernel_size: 11
    stride: 4
  }
}
layer {
  name: "relu1"
  type: "ReLU"
  bottom: "conv1"
  top: "conv1"
}
layer {
  name: "pool1"
  type: "Pooling"
  bottom: "conv1"
  top: "pool1"
  pooling_param {
    pool: MAX
    kernel_size: 3
    stride: 2
  }
}
layer {
  name: "norm1"
  type: "LRN"
  bottom: "pool1"
  top: "norm1"
  lrn_param {
    local_size: 5
    alpha: 0.0001
    beta: 0.75
  }
}
layer {
  name: "conv2"
  type: "Convolution"
  bottom: "norm1"
  top: "conv2"
  convolution_param {
    num_output: 256
    pad: 2
    kernel_size: 5
    group: 2
  }
}
layer {
  name: "relu2"
  type: "ReLU"
  bottom: "conv2"
  top: "conv2"
}
layer {
  name: "pool2"
  type: "Pooling"
  bottom: "conv2"
  top: "pool2"
  pooling_param {
    pool: MAX
    kernel_size: 3
    stride: 2
  }
}
layer {
  name: "norm2"
  type: "LRN"
  bottom: "pool2"
  top: "norm2"
  lrn_param {
    local_size: 5
    alpha: 0.0001
    beta: 0.75
  }
}
layer {
  name: "conv3"
  type: "Convolution"
  bottom: "norm2"
  top: "conv3"
  convolution_param {
    num_output: 384
    pad: 1
    kernel_size: 3
  }
}
layer {
  name: "relu3"
  type: "ReLU"
  bottom: "conv3"
  top: "conv3"
}
layer {
  name: "conv4"
  type: "Convolution"
  bottom: "conv3"
  top: "conv4"
  convolution_param {
    num_output: 384
    pad: 1
    kernel_size: 3
    group: 2
  }
}
layer {
  name: "relu4"
  type: "ReLU"
  bottom: "conv4"
  top: "conv4"
}
layer {
  name: "conv5"
  type: "Convolution"
  bottom: "conv4"
  top: "conv5"
  convolution_param {
    num_output: 256
    pad: 1
    kernel_size: 3
    group: 2
  }
}
layer {
  name: "relu5"
  type: "ReLU"
  bottom: "conv5"
  top: "conv5"
}
layer {
  name: "pool5"
  type: "Pooling"
  bottom: "conv5"
  top: "pool5"
  pooling_param {
    pool: MAX
    kernel_size: 3
    stride: 2
  }
}
layer {
  name: "fc6"
  type: "InnerProduct"
  bottom: "pool5"
  top: "fc6"
  inner_product_param {
    num_output: 4096
  }
}
layer {
  name: "relu6"
  type: "ReLU"
  bottom: "fc6"
  top: "fc6"
}
layer {
  name: "drop6"
  type: "Dropout"
  bottom: "fc6"
  top: "fc6"
  dropout_param {
    dropout_ratio: 0.5
  }
}
layer {
  name: "fc7"
  type: "InnerProduct"
  bottom: "fc6"
  top: "fc7"
  inner_product_param {
    num_output: 4096
  }
}
layer {
  name: "relu7"
  type: "ReLU"
  bottom: "fc7"
  top: "fc7"
}
layer {
  name: "drop7"
  type: "Dropout"
  bottom: "fc7"
  top: "fc7"
  dropout_param {
    dropout_ratio: 0.5
  }
}
layer {
  name: "fc8"
  type: "InnerProduct"
  bottom: "fc7"
  top: "fc8"
  inner_product_param {
    num_output: 1000
  }
}
layer {
  name: "prob"
  type: "Softmax"
  bottom: "fc8"
  top: "prob"
}
I1020 03:10:35.192742  6384 layer_factory.hpp:77] Creating layer data
I1020 03:10:35.192977  6384 net.cpp:84] Creating Layer data
I1020 03:10:35.193117  6384 net.cpp:380] data -> data
I1020 03:10:35.193408  6384 net.cpp:122] Setting up data
I1020 03:10:35.193519  6384 net.cpp:129] Top shape: 1 3 227 227 (154587)
I1020 03:10:35.193682  6384 net.cpp:137] Memory required for data: 618348
I1020 03:10:35.193786  6384 layer_factory.hpp:77] Creating layer conv1
I1020 03:10:35.193929  6384 net.cpp:84] Creating Layer conv1
I1020 03:10:35.194023  6384 net.cpp:406] conv1 <- data
I1020 03:10:35.194129  6384 net.cpp:380] conv1 -> conv1
I1020 03:10:35.195196  6384 net.cpp:122] Setting up conv1
I1020 03:10:35.195356  6384 net.cpp:129] Top shape: 1 96 55 55 (290400)
I1020 03:10:35.195471  6384 net.cpp:137] Memory required for data: 1779948
I1020 03:10:35.195688  6384 layer_factory.hpp:77] Creating layer relu1
I1020 03:10:35.195806  6384 net.cpp:84] Creating Layer relu1
I1020 03:10:35.195893  6384 net.cpp:406] relu1 <- conv1
I1020 03:10:35.195987  6384 net.cpp:367] relu1 -> conv1 (in-place)
I1020 03:10:35.196174  6384 net.cpp:122] Setting up relu1
I1020 03:10:35.196261  6384 net.cpp:129] Top shape: 1 96 55 55 (290400)
I1020 03:10:35.196360  6384 net.cpp:137] Memory required for data: 2941548
I1020 03:10:35.196440  6384 layer_factory.hpp:77] Creating layer pool1
I1020 03:10:35.196537  6384 net.cpp:84] Creating Layer pool1
I1020 03:10:35.196619  6384 net.cpp:406] pool1 <- conv1
I1020 03:10:35.196712  6384 net.cpp:380] pool1 -> pool1
I1020 03:10:35.196923  6384 net.cpp:122] Setting up pool1
I1020 03:10:35.197016  6384 net.cpp:129] Top shape: 1 96 27 27 (69984)
I1020 03:10:35.197116  6384 net.cpp:137] Memory required for data: 3221484
I1020 03:10:35.197197  6384 layer_factory.hpp:77] Creating layer norm1
I1020 03:10:35.197299  6384 net.cpp:84] Creating Layer norm1
I1020 03:10:35.197378  6384 net.cpp:406] norm1 <- pool1
I1020 03:10:35.197470  6384 net.cpp:380] norm1 -> norm1
I1020 03:10:35.197618  6384 net.cpp:122] Setting up norm1
I1020 03:10:35.197705  6384 net.cpp:129] Top shape: 1 96 27 27 (69984)
I1020 03:10:35.197803  6384 net.cpp:137] Memory required for data: 3501420
I1020 03:10:35.197883  6384 layer_factory.hpp:77] Creating layer conv2
I1020 03:10:35.197986  6384 net.cpp:84] Creating Layer conv2
I1020 03:10:35.198066  6384 net.cpp:406] conv2 <- norm1
I1020 03:10:35.198163  6384 net.cpp:380] conv2 -> conv2
I1020 03:10:35.201905  6384 net.cpp:122] Setting up conv2
I1020 03:10:35.202126  6384 net.cpp:129] Top shape: 1 256 27 27 (186624)
I1020 03:10:35.202246  6384 net.cpp:137] Memory required for data: 4247916
I1020 03:10:35.202388  6384 layer_factory.hpp:77] Creating layer relu2
I1020 03:10:35.202495  6384 net.cpp:84] Creating Layer relu2
I1020 03:10:35.202585  6384 net.cpp:406] relu2 <- conv2
I1020 03:10:35.202682  6384 net.cpp:367] relu2 -> conv2 (in-place)
I1020 03:10:35.202790  6384 net.cpp:122] Setting up relu2
I1020 03:10:35.202872  6384 net.cpp:129] Top shape: 1 256 27 27 (186624)
I1020 03:10:35.202970  6384 net.cpp:137] Memory required for data: 4994412
I1020 03:10:35.203052  6384 layer_factory.hpp:77] Creating layer pool2
I1020 03:10:35.203147  6384 net.cpp:84] Creating Layer pool2
I1020 03:10:35.203227  6384 net.cpp:406] pool2 <- conv2
I1020 03:10:35.203320  6384 net.cpp:380] pool2 -> pool2
I1020 03:10:35.203441  6384 net.cpp:122] Setting up pool2
I1020 03:10:35.203524  6384 net.cpp:129] Top shape: 1 256 13 13 (43264)
I1020 03:10:35.203624  6384 net.cpp:137] Memory required for data: 5167468
I1020 03:10:35.203704  6384 layer_factory.hpp:77] Creating layer norm2
I1020 03:10:35.203806  6384 net.cpp:84] Creating Layer norm2
I1020 03:10:35.203886  6384 net.cpp:406] norm2 <- pool2
I1020 03:10:35.203976  6384 net.cpp:380] norm2 -> norm2
I1020 03:10:35.204082  6384 net.cpp:122] Setting up norm2
I1020 03:10:35.204159  6384 net.cpp:129] Top shape: 1 256 13 13 (43264)
I1020 03:10:35.204263  6384 net.cpp:137] Memory required for data: 5340524
I1020 03:10:35.204340  6384 layer_factory.hpp:77] Creating layer conv3
I1020 03:10:35.204442  6384 net.cpp:84] Creating Layer conv3
I1020 03:10:35.204519  6384 net.cpp:406] conv3 <- norm2
I1020 03:10:35.204612  6384 net.cpp:380] conv3 -> conv3
I1020 03:10:35.215065  6384 net.cpp:122] Setting up conv3
I1020 03:10:35.215317  6384 net.cpp:129] Top shape: 1 384 13 13 (64896)
I1020 03:10:35.215456  6384 net.cpp:137] Memory required for data: 5600108
I1020 03:10:35.215615  6384 layer_factory.hpp:77] Creating layer relu3
I1020 03:10:35.215776  6384 net.cpp:84] Creating Layer relu3
I1020 03:10:35.215898  6384 net.cpp:406] relu3 <- conv3
I1020 03:10:35.216029  6384 net.cpp:367] relu3 -> conv3 (in-place)
I1020 03:10:35.216177  6384 net.cpp:122] Setting up relu3
I1020 03:10:35.216290  6384 net.cpp:129] Top shape: 1 384 13 13 (64896)
I1020 03:10:35.216428  6384 net.cpp:137] Memory required for data: 5859692
I1020 03:10:35.216533  6384 layer_factory.hpp:77] Creating layer conv4
I1020 03:10:35.216670  6384 net.cpp:84] Creating Layer conv4
I1020 03:10:35.216773  6384 net.cpp:406] conv4 <- conv3
I1020 03:10:35.216876  6384 net.cpp:380] conv4 -> conv4
I1020 03:10:35.224656  6384 net.cpp:122] Setting up conv4
I1020 03:10:35.225059  6384 net.cpp:129] Top shape: 1 384 13 13 (64896)
I1020 03:10:35.225234  6384 net.cpp:137] Memory required for data: 6119276
I1020 03:10:35.225376  6384 layer_factory.hpp:77] Creating layer relu4
I1020 03:10:35.225522  6384 net.cpp:84] Creating Layer relu4
I1020 03:10:35.225634  6384 net.cpp:406] relu4 <- conv4
I1020 03:10:35.225772  6384 net.cpp:367] relu4 -> conv4 (in-place)
I1020 03:10:35.225922  6384 net.cpp:122] Setting up relu4
I1020 03:10:35.226037  6384 net.cpp:129] Top shape: 1 384 13 13 (64896)
I1020 03:10:35.226173  6384 net.cpp:137] Memory required for data: 6378860
I1020 03:10:35.226277  6384 layer_factory.hpp:77] Creating layer conv5
I1020 03:10:35.226418  6384 net.cpp:84] Creating Layer conv5
I1020 03:10:35.226503  6384 net.cpp:406] conv5 <- conv4
I1020 03:10:35.226621  6384 net.cpp:380] conv5 -> conv5
I1020 03:10:35.231987  6384 net.cpp:122] Setting up conv5
I1020 03:10:35.232237  6384 net.cpp:129] Top shape: 1 256 13 13 (43264)
I1020 03:10:35.232378  6384 net.cpp:137] Memory required for data: 6551916
I1020 03:10:35.232573  6384 layer_factory.hpp:77] Creating layer relu5
I1020 03:10:35.232722  6384 net.cpp:84] Creating Layer relu5
I1020 03:10:35.232843  6384 net.cpp:406] relu5 <- conv5
I1020 03:10:35.232995  6384 net.cpp:367] relu5 -> conv5 (in-place)
I1020 03:10:35.233141  6384 net.cpp:122] Setting up relu5
I1020 03:10:35.233254  6384 net.cpp:129] Top shape: 1 256 13 13 (43264)
I1020 03:10:35.233374  6384 net.cpp:137] Memory required for data: 6724972
I1020 03:10:35.233479  6384 layer_factory.hpp:77] Creating layer pool5
I1020 03:10:35.233579  6384 net.cpp:84] Creating Layer pool5
I1020 03:10:35.233667  6384 net.cpp:406] pool5 <- conv5
I1020 03:10:35.233762  6384 net.cpp:380] pool5 -> pool5
I1020 03:10:35.233888  6384 net.cpp:122] Setting up pool5
I1020 03:10:35.234010  6384 net.cpp:129] Top shape: 1 256 6 6 (9216)
I1020 03:10:35.234144  6384 net.cpp:137] Memory required for data: 6761836
I1020 03:10:35.234228  6384 layer_factory.hpp:77] Creating layer fc6
I1020 03:10:35.234406  6384 net.cpp:84] Creating Layer fc6
I1020 03:10:35.234527  6384 net.cpp:406] fc6 <- pool5
I1020 03:10:35.234714  6384 net.cpp:380] fc6 -> fc6
I1020 03:10:35.572067  6384 net.cpp:122] Setting up fc6
I1020 03:10:35.572326  6384 net.cpp:129] Top shape: 1 4096 (4096)
I1020 03:10:35.572438  6384 net.cpp:137] Memory required for data: 6778220
I1020 03:10:35.572562  6384 layer_factory.hpp:77] Creating layer relu6
I1020 03:10:35.572749  6384 net.cpp:84] Creating Layer relu6
I1020 03:10:35.572875  6384 net.cpp:406] relu6 <- fc6
I1020 03:10:35.573025  6384 net.cpp:367] relu6 -> fc6 (in-place)
I1020 03:10:35.573165  6384 net.cpp:122] Setting up relu6
I1020 03:10:35.573271  6384 net.cpp:129] Top shape: 1 4096 (4096)
I1020 03:10:35.573386  6384 net.cpp:137] Memory required for data: 6794604
I1020 03:10:35.573469  6384 layer_factory.hpp:77] Creating layer drop6
I1020 03:10:35.573565  6384 net.cpp:84] Creating Layer drop6
I1020 03:10:35.573647  6384 net.cpp:406] drop6 <- fc6
I1020 03:10:35.573732  6384 net.cpp:367] drop6 -> fc6 (in-place)
I1020 03:10:35.573879  6384 net.cpp:122] Setting up drop6
I1020 03:10:35.573972  6384 net.cpp:129] Top shape: 1 4096 (4096)
I1020 03:10:35.574059  6384 net.cpp:137] Memory required for data: 6810988
I1020 03:10:35.574137  6384 layer_factory.hpp:77] Creating layer fc7
I1020 03:10:35.574219  6384 net.cpp:84] Creating Layer fc7
I1020 03:10:35.574298  6384 net.cpp:406] fc7 <- fc6
I1020 03:10:35.574378  6384 net.cpp:380] fc7 -> fc7
I1020 03:10:35.759338  6384 net.cpp:122] Setting up fc7
I1020 03:10:35.759593  6384 net.cpp:129] Top shape: 1 4096 (4096)
I1020 03:10:35.759779  6384 net.cpp:137] Memory required for data: 6827372
I1020 03:10:35.759924  6384 layer_factory.hpp:77] Creating layer relu7
I1020 03:10:35.760043  6384 net.cpp:84] Creating Layer relu7
I1020 03:10:35.760175  6384 net.cpp:406] relu7 <- fc7
I1020 03:10:35.760272  6384 net.cpp:367] relu7 -> fc7 (in-place)
I1020 03:10:35.760411  6384 net.cpp:122] Setting up relu7
I1020 03:10:35.760512  6384 net.cpp:129] Top shape: 1 4096 (4096)
I1020 03:10:35.760696  6384 net.cpp:137] Memory required for data: 6843756
I1020 03:10:35.760782  6384 layer_factory.hpp:77] Creating layer drop7
I1020 03:10:35.760895  6384 net.cpp:84] Creating Layer drop7
I1020 03:10:35.760980  6384 net.cpp:406] drop7 <- fc7
I1020 03:10:35.761075  6384 net.cpp:367] drop7 -> fc7 (in-place)
I1020 03:10:35.761178  6384 net.cpp:122] Setting up drop7
I1020 03:10:35.761257  6384 net.cpp:129] Top shape: 1 4096 (4096)
I1020 03:10:35.761358  6384 net.cpp:137] Memory required for data: 6860140
I1020 03:10:35.761436  6384 layer_factory.hpp:77] Creating layer fc8
I1020 03:10:35.761523  6384 net.cpp:84] Creating Layer fc8
I1020 03:10:35.761610  6384 net.cpp:406] fc8 <- fc7
I1020 03:10:35.761711  6384 net.cpp:380] fc8 -> fc8
I1020 03:10:35.840566  6384 net.cpp:122] Setting up fc8
I1020 03:10:35.840816  6384 net.cpp:129] Top shape: 1 1000 (1000)
I1020 03:10:35.840924  6384 net.cpp:137] Memory required for data: 6864140
I1020 03:10:35.841042  6384 layer_factory.hpp:77] Creating layer prob
I1020 03:10:35.841152  6384 net.cpp:84] Creating Layer prob
I1020 03:10:35.841318  6384 net.cpp:406] prob <- fc8
I1020 03:10:35.841428  6384 net.cpp:380] prob -> prob
I1020 03:10:35.841645  6384 net.cpp:122] Setting up prob
I1020 03:10:35.841768  6384 net.cpp:129] Top shape: 1 1000 (1000)
I1020 03:10:35.841899  6384 net.cpp:137] Memory required for data: 6868140
I1020 03:10:35.841998  6384 net.cpp:200] prob does not need backward computation.
I1020 03:10:35.842152  6384 net.cpp:200] fc8 does not need backward computation.
I1020 03:10:35.842245  6384 net.cpp:200] drop7 does not need backward computation.
I1020 03:10:35.842325  6384 net.cpp:200] relu7 does not need backward computation.
…
