…
./build/tools/caffe time -model models/bvlc_reference_caffenet/deploy.prototxt -weights models/bvlc_reference_caffenet/bvlc_reference_caffenet.caffemodel -iterations 10

gaston@ML-Ubuntu-VB:~/caffe_repo/caffe$ ./build/tools/caffe time -model models/bvlc_reference_caffenet/deploy.prototxt -weights models/bvlc_reference_caffenet/bvlc_reference_caffenet.caffemodel -iterations 10
I1016 17:15:42.781527  5651 caffe.cpp:352] Use CPU.
I1016 17:15:42.796813  5651 net.cpp:51] Initializing net from parameters: 
name: "CaffeNet"
state {
  phase: TRAIN
  level: 0
  stage: ""
}
layer {
  name: "data"
  type: "Input"
  top: "data"
  input_param {
    shape {
      dim: 10
      dim: 3
      dim: 227
      dim: 227
    }
  }
}
layer {
  name: "conv1"
  type: "Convolution"
  bottom: "data"
  top: "conv1"
  convolution_param {
    num_output: 96
    kernel_size: 11
    stride: 4
  }
}
layer {
  name: "relu1"
  type: "ReLU"
  bottom: "conv1"
  top: "conv1"
}
layer {
  name: "pool1"
  type: "Pooling"
  bottom: "conv1"
  top: "pool1"
  pooling_param {
    pool: MAX
    kernel_size: 3
    stride: 2
  }
}
layer {
  name: "norm1"
  type: "LRN"
  bottom: "pool1"
  top: "norm1"
  lrn_param {
    local_size: 5
    alpha: 0.0001
    beta: 0.75
  }
}
layer {
  name: "conv2"
  type: "Convolution"
  bottom: "norm1"
  top: "conv2"
  convolution_param {
    num_output: 256
    pad: 2
    kernel_size: 5
    group: 2
  }
}
layer {
  name: "relu2"
  type: "ReLU"
  bottom: "conv2"
  top: "conv2"
}
layer {
  name: "pool2"
  type: "Pooling"
  bottom: "conv2"
  top: "pool2"
  pooling_param {
    pool: MAX
    kernel_size: 3
    stride: 2
  }
}
layer {
  name: "norm2"
  type: "LRN"
  bottom: "pool2"
  top: "norm2"
  lrn_param {
    local_size: 5
    alpha: 0.0001
    beta: 0.75
  }
}
layer {
  name: "conv3"
  type: "Convolution"
  bottom: "norm2"
  top: "conv3"
  convolution_param {
    num_output: 384
    pad: 1
    kernel_size: 3
  }
}
layer {
  name: "relu3"
  type: "ReLU"
  bottom: "conv3"
  top: "conv3"
}
layer {
  name: "conv4"
  type: "Convolution"
  bottom: "conv3"
  top: "conv4"
  convolution_param {
    num_output: 384
    pad: 1
    kernel_size: 3
    group: 2
  }
}
layer {
  name: "relu4"
  type: "ReLU"
  bottom: "conv4"
  top: "conv4"
}
layer {
  name: "conv5"
  type: "Convolution"
  bottom: "conv4"
  top: "conv5"
  convolution_param {
    num_output: 256
    pad: 1
    kernel_size: 3
    group: 2
  }
}
layer {
  name: "relu5"
  type: "ReLU"
  bottom: "conv5"
  top: "conv5"
}
layer {
  name: "pool5"
  type: "Pooling"
  bottom: "conv5"
  top: "pool5"
  pooling_param {
    pool: MAX
    kernel_size: 3
    stride: 2
  }
}
layer {
  name: "fc6"
  type: "InnerProduct"
  bottom: "pool5"
  top: "fc6"
  inner_product_param {
    num_output: 4096
  }
}
layer {
  name: "relu6"
  type: "ReLU"
  bottom: "fc6"
  top: "fc6"
}
layer {
  name: "drop6"
  type: "Dropout"
  bottom: "fc6"
  top: "fc6"
  dropout_param {
    dropout_ratio: 0.5
  }
}
layer {
  name: "fc7"
  type: "InnerProduct"
  bottom: "fc6"
  top: "fc7"
  inner_product_param {
    num_output: 4096
  }
}
layer {
  name: "relu7"
  type: "ReLU"
  bottom: "fc7"
  top: "fc7"
}
layer {
  name: "drop7"
  type: "Dropout"
  bottom: "fc7"
  top: "fc7"
  dropout_param {
    dropout_ratio: 0.5
  }
}
layer {
  name: "fc8"
  type: "InnerProduct"
  bottom: "fc7"
  top: "fc8"
  inner_product_param {
    num_output: 1000
  }
}
layer {
  name: "prob"
  type: "Softmax"
  bottom: "fc8"
  top: "prob"
}
I1016 17:15:42.805858  5651 layer_factory.hpp:77] Creating layer data
I1016 17:15:42.805892  5651 net.cpp:84] Creating Layer data
I1016 17:15:42.805903  5651 net.cpp:380] data -> data
I1016 17:15:42.805939  5651 net.cpp:122] Setting up data
I1016 17:15:42.805958  5651 net.cpp:129] Top shape: 10 3 227 227 (1545870)
I1016 17:15:42.805965  5651 net.cpp:137] Memory required for data: 6183480
I1016 17:15:42.805974  5651 layer_factory.hpp:77] Creating layer conv1
I1016 17:15:42.805985  5651 net.cpp:84] Creating Layer conv1
I1016 17:15:42.805992  5651 net.cpp:406] conv1 <- data
I1016 17:15:42.806002  5651 net.cpp:380] conv1 -> conv1
I1016 17:15:42.806221  5651 net.cpp:122] Setting up conv1
I1016 17:15:42.806237  5651 net.cpp:129] Top shape: 10 96 55 55 (2904000)
I1016 17:15:42.806243  5651 net.cpp:137] Memory required for data: 17799480
I1016 17:15:42.806262  5651 layer_factory.hpp:77] Creating layer relu1
I1016 17:15:42.806272  5651 net.cpp:84] Creating Layer relu1
I1016 17:15:42.806277  5651 net.cpp:406] relu1 <- conv1
I1016 17:15:42.806283  5651 net.cpp:367] relu1 -> conv1 (in-place)
I1016 17:15:42.806314  5651 net.cpp:122] Setting up relu1
I1016 17:15:42.806322  5651 net.cpp:129] Top shape: 10 96 55 55 (2904000)
I1016 17:15:42.806326  5651 net.cpp:137] Memory required for data: 29415480
I1016 17:15:42.806331  5651 layer_factory.hpp:77] Creating layer pool1
I1016 17:15:42.806339  5651 net.cpp:84] Creating Layer pool1
I1016 17:15:42.806344  5651 net.cpp:406] pool1 <- conv1
I1016 17:15:42.806350  5651 net.cpp:380] pool1 -> pool1
I1016 17:15:42.806367  5651 net.cpp:122] Setting up pool1
I1016 17:15:42.806375  5651 net.cpp:129] Top shape: 10 96 27 27 (699840)
I1016 17:15:42.806380  5651 net.cpp:137] Memory required for data: 32214840
I1016 17:15:42.806385  5651 layer_factory.hpp:77] Creating layer norm1
I1016 17:15:42.806392  5651 net.cpp:84] Creating Layer norm1
I1016 17:15:42.806397  5651 net.cpp:406] norm1 <- pool1
I1016 17:15:42.806403  5651 net.cpp:380] norm1 -> norm1
I1016 17:15:42.806413  5651 net.cpp:122] Setting up norm1
I1016 17:15:42.806419  5651 net.cpp:129] Top shape: 10 96 27 27 (699840)
I1016 17:15:42.806424  5651 net.cpp:137] Memory required for data: 35014200
I1016 17:15:42.806428  5651 layer_factory.hpp:77] Creating layer conv2
I1016 17:15:42.806437  5651 net.cpp:84] Creating Layer conv2
I1016 17:15:42.806442  5651 net.cpp:406] conv2 <- norm1
I1016 17:15:42.806447  5651 net.cpp:380] conv2 -> conv2
I1016 17:15:42.806968  5651 net.cpp:122] Setting up conv2
I1016 17:15:42.806984  5651 net.cpp:129] Top shape: 10 256 27 27 (1866240)
I1016 17:15:42.806989  5651 net.cpp:137] Memory required for data: 42479160
I1016 17:15:42.807000  5651 layer_factory.hpp:77] Creating layer relu2
I1016 17:15:42.807008  5651 net.cpp:84] Creating Layer relu2
I1016 17:15:42.807013  5651 net.cpp:406] relu2 <- conv2
I1016 17:15:42.807018  5651 net.cpp:367] relu2 -> conv2 (in-place)
I1016 17:15:42.807025  5651 net.cpp:122] Setting up relu2
I1016 17:15:42.807031  5651 net.cpp:129] Top shape: 10 256 27 27 (1866240)
I1016 17:15:42.807035  5651 net.cpp:137] Memory required for data: 49944120
I1016 17:15:42.807040  5651 layer_factory.hpp:77] Creating layer pool2
I1016 17:15:42.807047  5651 net.cpp:84] Creating Layer pool2
I1016 17:15:42.807051  5651 net.cpp:406] pool2 <- conv2
I1016 17:15:42.807057  5651 net.cpp:380] pool2 -> pool2
I1016 17:15:42.807065  5651 net.cpp:122] Setting up pool2
I1016 17:15:42.807072  5651 net.cpp:129] Top shape: 10 256 13 13 (432640)
I1016 17:15:42.807076  5651 net.cpp:137] Memory required for data: 51674680
I1016 17:15:42.807081  5651 layer_factory.hpp:77] Creating layer norm2
I1016 17:15:42.807296  5651 net.cpp:84] Creating Layer norm2
I1016 17:15:42.807312  5651 net.cpp:406] norm2 <- pool2
I1016 17:15:42.807320  5651 net.cpp:380] norm2 -> norm2
I1016 17:15:42.807330  5651 net.cpp:122] Setting up norm2
I1016 17:15:42.807337  5651 net.cpp:129] Top shape: 10 256 13 13 (432640)
I1016 17:15:42.807343  5651 net.cpp:137] Memory required for data: 53405240
I1016 17:15:42.807348  5651 layer_factory.hpp:77] Creating layer conv3
I1016 17:15:42.807355  5651 net.cpp:84] Creating Layer conv3
I1016 17:15:42.807361  5651 net.cpp:406] conv3 <- norm2
I1016 17:15:42.807366  5651 net.cpp:380] conv3 -> conv3
I1016 17:15:42.808831  5651 net.cpp:122] Setting up conv3
I1016 17:15:42.808856  5651 net.cpp:129] Top shape: 10 384 13 13 (648960)
I1016 17:15:42.808862  5651 net.cpp:137] Memory required for data: 56001080
I1016 17:15:42.808876  5651 layer_factory.hpp:77] Creating layer relu3
I1016 17:15:42.808884  5651 net.cpp:84] Creating Layer relu3
I1016 17:15:42.808890  5651 net.cpp:406] relu3 <- conv3
I1016 17:15:42.808897  5651 net.cpp:367] relu3 -> conv3 (in-place)
I1016 17:15:42.808905  5651 net.cpp:122] Setting up relu3
I1016 17:15:42.808912  5651 net.cpp:129] Top shape: 10 384 13 13 (648960)
I1016 17:15:42.808917  5651 net.cpp:137] Memory required for data: 58596920
I1016 17:15:42.808921  5651 layer_factory.hpp:77] Creating layer conv4
I1016 17:15:42.808930  5651 net.cpp:84] Creating Layer conv4
I1016 17:15:42.808935  5651 net.cpp:406] conv4 <- conv3
I1016 17:15:42.808941  5651 net.cpp:380] conv4 -> conv4
I1016 17:15:42.810019  5651 net.cpp:122] Setting up conv4
I1016 17:15:42.810036  5651 net.cpp:129] Top shape: 10 384 13 13 (648960)
I1016 17:15:42.810041  5651 net.cpp:137] Memory required for data: 61192760
I1016 17:15:42.810050  5651 layer_factory.hpp:77] Creating layer relu4
I1016 17:15:42.810057  5651 net.cpp:84] Creating Layer relu4
I1016 17:15:42.810062  5651 net.cpp:406] relu4 <- conv4
I1016 17:15:42.810070  5651 net.cpp:367] relu4 -> conv4 (in-place)
I1016 17:15:42.810076  5651 net.cpp:122] Setting up relu4
I1016 17:15:42.810082  5651 net.cpp:129] Top shape: 10 384 13 13 (648960)
I1016 17:15:42.810087  5651 net.cpp:137] Memory required for data: 63788600
I1016 17:15:42.810092  5651 layer_factory.hpp:77] Creating layer conv5
I1016 17:15:42.810212  5651 net.cpp:84] Creating Layer conv5
I1016 17:15:42.810222  5651 net.cpp:406] conv5 <- conv4
I1016 17:15:42.810230  5651 net.cpp:380] conv5 -> conv5
I1016 17:15:42.810904  5651 net.cpp:122] Setting up conv5
I1016 17:15:42.810919  5651 net.cpp:129] Top shape: 10 256 13 13 (432640)
I1016 17:15:42.810923  5651 net.cpp:137] Memory required for data: 65519160
I1016 17:15:42.810935  5651 layer_factory.hpp:77] Creating layer relu5
I1016 17:15:42.810942  5651 net.cpp:84] Creating Layer relu5
I1016 17:15:42.810947  5651 net.cpp:406] relu5 <- conv5
I1016 17:15:42.810953  5651 net.cpp:367] relu5 -> conv5 (in-place)
I1016 17:15:42.810959  5651 net.cpp:122] Setting up relu5
I1016 17:15:42.810966  5651 net.cpp:129] Top shape: 10 256 13 13 (432640)
I1016 17:15:42.810971  5651 net.cpp:137] Memory required for data: 67249720
I1016 17:15:42.810976  5651 layer_factory.hpp:77] Creating layer pool5
I1016 17:15:42.810981  5651 net.cpp:84] Creating Layer pool5
I1016 17:15:42.810986  5651 net.cpp:406] pool5 <- conv5
I1016 17:15:42.810992  5651 net.cpp:380] pool5 -> pool5
I1016 17:15:42.811002  5651 net.cpp:122] Setting up pool5
I1016 17:15:42.811007  5651 net.cpp:129] Top shape: 10 256 6 6 (92160)
I1016 17:15:42.811012  5651 net.cpp:137] Memory required for data: 67618360
I1016 17:15:42.811017  5651 layer_factory.hpp:77] Creating layer fc6
I1016 17:15:42.811030  5651 net.cpp:84] Creating Layer fc6
I1016 17:15:42.811036  5651 net.cpp:406] fc6 <- pool5
I1016 17:15:42.811043  5651 net.cpp:380] fc6 -> fc6
I1016 17:15:42.879442  5651 net.cpp:122] Setting up fc6
I1016 17:15:42.879555  5651 net.cpp:129] Top shape: 10 4096 (40960)
I1016 17:15:42.879588  5651 net.cpp:137] Memory required for data: 67782200
I1016 17:15:42.879752  5651 layer_factory.hpp:77] Creating layer relu6
I1016 17:15:42.879796  5651 net.cpp:84] Creating Layer relu6
I1016 17:15:42.879827  5651 net.cpp:406] relu6 <- fc6
I1016 17:15:42.879861  5651 net.cpp:367] relu6 -> fc6 (in-place)
I1016 17:15:42.879897  5651 net.cpp:122] Setting up relu6
I1016 17:15:42.879928  5651 net.cpp:129] Top shape: 10 4096 (40960)
I1016 17:15:42.879957  5651 net.cpp:137] Memory required for data: 67946040
I1016 17:15:42.879987  5651 layer_factory.hpp:77] Creating layer drop6
I1016 17:15:42.880020  5651 net.cpp:84] Creating Layer drop6
I1016 17:15:42.880261  5651 net.cpp:406] drop6 <- fc6
I1016 17:15:42.880306  5651 net.cpp:367] drop6 -> fc6 (in-place)
I1016 17:15:42.880348  5651 net.cpp:122] Setting up drop6
I1016 17:15:42.880383  5651 net.cpp:129] Top shape: 10 4096 (40960)
I1016 17:15:42.880412  5651 net.cpp:137] Memory required for data: 68109880
I1016 17:15:42.880442  5651 layer_factory.hpp:77] Creating layer fc7
I1016 17:15:42.880475  5651 net.cpp:84] Creating Layer fc7
I1016 17:15:42.880504  5651 net.cpp:406] fc7 <- fc6
I1016 17:15:42.880540  5651 net.cpp:380] fc7 -> fc7
I1016 17:15:42.930538  5651 net.cpp:122] Setting up fc7
I1016 17:15:42.930797  5651 net.cpp:129] Top shape: 10 4096 (40960)
I1016 17:15:42.930845  5651 net.cpp:137] Memory required for data: 68273720
I1016 17:15:42.930893  5651 layer_factory.hpp:77] Creating layer relu7
I1016 17:15:42.930934  5651 net.cpp:84] Creating Layer relu7
I1016 17:15:42.930968  5651 net.cpp:406] relu7 <- fc7
I1016 17:15:42.931002  5651 net.cpp:367] relu7 -> fc7 (in-place)
I1016 17:15:42.931040  5651 net.cpp:122] Setting up relu7
I1016 17:15:42.931100  5651 net.cpp:129] Top shape: 10 4096 (40960)
I1016 17:15:42.931370  5651 net.cpp:137] Memory required for data: 68437560
I1016 17:15:42.931402  5651 layer_factory.hpp:77] Creating layer drop7
I1016 17:15:42.931435  5651 net.cpp:84] Creating Layer drop7
I1016 17:15:42.931466  5651 net.cpp:406] drop7 <- fc7
I1016 17:15:42.931501  5651 net.cpp:367] drop7 -> fc7 (in-place)
I1016 17:15:42.931540  5651 net.cpp:122] Setting up drop7
I1016 17:15:42.931572  5651 net.cpp:129] Top shape: 10 4096 (40960)
I1016 17:15:42.931602  5651 net.cpp:137] Memory required for data: 68601400
I1016 17:15:42.931823  5651 layer_factory.hpp:77] Creating layer fc8
I1016 17:15:42.931862  5651 net.cpp:84] Creating Layer fc8
I1016 17:15:42.931893  5651 net.cpp:406] fc8 <- fc7
I1016 17:15:42.931927  5651 net.cpp:380] fc8 -> fc8
I1016 17:15:42.938256  5651 net.cpp:122] Setting up fc8
I1016 17:15:42.938385  5651 net.cpp:129] Top shape: 10 1000 (10000)
I1016 17:15:42.941998  5651 net.cpp:137] Memory required for data: 68641400
I1016 17:15:42.942031  5651 layer_factory.hpp:77] Creating layer prob
I1016 17:15:42.942051  5651 net.cpp:84] Creating Layer prob
I1016 17:15:42.942059  5651 net.cpp:406] prob <- fc8
I1016 17:15:42.942070  5651 net.cpp:380] prob -> prob
I1016 17:15:42.942086  5651 net.cpp:122] Setting up prob
I1016 17:15:42.942095  5651 net.cpp:129] Top shape: 10 1000 (10000)
I1016 17:15:42.942101  5651 net.cpp:137] Memory required for data: 68681400
I1016 17:15:42.942405  5651 net.cpp:200] prob does not need backward computation.
I1016 17:15:42.942450  5651 net.cpp:200] fc8 does not need backward computation.
I1016 17:15:42.942481  5651 net.cpp:200] drop7 does not need backward computation.
I1016 17:15:42.942510  5651 net.cpp:200] relu7 does not need backward computation.
…
benchmarking con batch 1

gaston@ML-Ubuntu-VB:~/caffe_repo/caffe$ ./build/tools/caffe time -model models/bvlc_reference_caffenet/deploy.prototxt -weights models/bvlc_reference_caffenet/bvlc_reference_caffenet.caffemodel -iterations 10
I1016 17:18:37.055408  5710 caffe.cpp:352] Use CPU.
I1016 17:18:37.058132  5710 net.cpp:51] Initializing net from parameters: 
name: "CaffeNet"
state {
  phase: TRAIN
  level: 0
  stage: ""
}
layer {
  name: "data"
  type: "Input"
  top: "data"
  input_param {
    shape {
      dim: 1
      dim: 3
      dim: 227
      dim: 227
    }
  }
}
layer {
  name: "conv1"
  type: "Convolution"
  bottom: "data"
  top: "conv1"
  convolution_param {
    num_output: 96
    kernel_size: 11
    stride: 4
  }
}
layer {
  name: "relu1"
  type: "ReLU"
  bottom: "conv1"
  top: "conv1"
}
layer {
  name: "pool1"
  type: "Pooling"
  bottom: "conv1"
  top: "pool1"
  pooling_param {
    pool: MAX
    kernel_size: 3
    stride: 2
  }
}
layer {
  name: "norm1"
  type: "LRN"
  bottom: "pool1"
  top: "norm1"
  lrn_param {
    local_size: 5
    alpha: 0.0001
    beta: 0.75
  }
}
layer {
  name: "conv2"
  type: "Convolution"
  bottom: "norm1"
  top: "conv2"
  convolution_param {
    num_output: 256
    pad: 2
    kernel_size: 5
    group: 2
  }
}
layer {
  name: "relu2"
  type: "ReLU"
  bottom: "conv2"
  top: "conv2"
}
layer {
  name: "pool2"
  type: "Pooling"
  bottom: "conv2"
  top: "pool2"
  pooling_param {
    pool: MAX
    kernel_size: 3
    stride: 2
  }
}
layer {
  name: "norm2"
  type: "LRN"
  bottom: "pool2"
  top: "norm2"
  lrn_param {
    local_size: 5
    alpha: 0.0001
    beta: 0.75
  }
}
layer {
  name: "conv3"
  type: "Convolution"
  bottom: "norm2"
  top: "conv3"
  convolution_param {
    num_output: 384
    pad: 1
    kernel_size: 3
  }
}
layer {
  name: "relu3"
  type: "ReLU"
  bottom: "conv3"
  top: "conv3"
}
layer {
  name: "conv4"
  type: "Convolution"
  bottom: "conv3"
  top: "conv4"
  convolution_param {
    num_output: 384
    pad: 1
    kernel_size: 3
    group: 2
  }
}
layer {
  name: "relu4"
  type: "ReLU"
  bottom: "conv4"
  top: "conv4"
}
layer {
  name: "conv5"
  type: "Convolution"
  bottom: "conv4"
  top: "conv5"
  convolution_param {
    num_output: 256
    pad: 1
    kernel_size: 3
    group: 2
  }
}
layer {
  name: "relu5"
  type: "ReLU"
  bottom: "conv5"
  top: "conv5"
}
layer {
  name: "pool5"
  type: "Pooling"
  bottom: "conv5"
  top: "pool5"
  pooling_param {
    pool: MAX
    kernel_size: 3
    stride: 2
  }
}
layer {
  name: "fc6"
  type: "InnerProduct"
  bottom: "pool5"
  top: "fc6"
  inner_product_param {
    num_output: 4096
  }
}
layer {
  name: "relu6"
  type: "ReLU"
  bottom: "fc6"
  top: "fc6"
}
layer {
  name: "drop6"
  type: "Dropout"
  bottom: "fc6"
  top: "fc6"
  dropout_param {
    dropout_ratio: 0.5
  }
}
layer {
  name: "fc7"
  type: "InnerProduct"
  bottom: "fc6"
  top: "fc7"
  inner_product_param {
    num_output: 4096
  }
}
layer {
  name: "relu7"
  type: "ReLU"
  bottom: "fc7"
  top: "fc7"
}
layer {
  name: "drop7"
  type: "Dropout"
  bottom: "fc7"
  top: "fc7"
  dropout_param {
    dropout_ratio: 0.5
  }
}
layer {
  name: "fc8"
  type: "InnerProduct"
  bottom: "fc7"
  top: "fc8"
  inner_product_param {
    num_output: 1000
  }
}
layer {
  name: "prob"
  type: "Softmax"
  bottom: "fc8"
  top: "prob"
}
I1016 17:18:37.072890  5710 layer_factory.hpp:77] Creating layer data
I1016 17:18:37.072926  5710 net.cpp:84] Creating Layer data
I1016 17:18:37.072935  5710 net.cpp:380] data -> data
I1016 17:18:37.072968  5710 net.cpp:122] Setting up data
I1016 17:18:37.072986  5710 net.cpp:129] Top shape: 1 3 227 227 (154587)
I1016 17:18:37.072993  5710 net.cpp:137] Memory required for data: 618348
I1016 17:18:37.073001  5710 layer_factory.hpp:77] Creating layer conv1
I1016 17:18:37.073209  5710 net.cpp:84] Creating Layer conv1
I1016 17:18:37.073369  5710 net.cpp:406] conv1 <- data
I1016 17:18:37.073407  5710 net.cpp:380] conv1 -> conv1
I1016 17:18:37.073649  5710 net.cpp:122] Setting up conv1
I1016 17:18:37.073695  5710 net.cpp:129] Top shape: 1 96 55 55 (290400)
I1016 17:18:37.073725  5710 net.cpp:137] Memory required for data: 1779948
I1016 17:18:37.073770  5710 layer_factory.hpp:77] Creating layer relu1
I1016 17:18:37.073804  5710 net.cpp:84] Creating Layer relu1
I1016 17:18:37.073834  5710 net.cpp:406] relu1 <- conv1
I1016 17:18:37.073865  5710 net.cpp:367] relu1 -> conv1 (in-place)
I1016 17:18:37.073921  5710 net.cpp:122] Setting up relu1
I1016 17:18:37.073954  5710 net.cpp:129] Top shape: 1 96 55 55 (290400)
I1016 17:18:37.073983  5710 net.cpp:137] Memory required for data: 2941548
I1016 17:18:37.074128  5710 layer_factory.hpp:77] Creating layer pool1
I1016 17:18:37.074165  5710 net.cpp:84] Creating Layer pool1
I1016 17:18:37.074195  5710 net.cpp:406] pool1 <- conv1
I1016 17:18:37.074226  5710 net.cpp:380] pool1 -> pool1
I1016 17:18:37.074271  5710 net.cpp:122] Setting up pool1
I1016 17:18:37.074304  5710 net.cpp:129] Top shape: 1 96 27 27 (69984)
I1016 17:18:37.074333  5710 net.cpp:137] Memory required for data: 3221484
I1016 17:18:37.074362  5710 layer_factory.hpp:77] Creating layer norm1
I1016 17:18:37.074385  5710 net.cpp:84] Creating Layer norm1
I1016 17:18:37.074405  5710 net.cpp:406] norm1 <- pool1
I1016 17:18:37.074427  5710 net.cpp:380] norm1 -> norm1
I1016 17:18:37.074452  5710 net.cpp:122] Setting up norm1
I1016 17:18:37.074475  5710 net.cpp:129] Top shape: 1 96 27 27 (69984)
I1016 17:18:37.074493  5710 net.cpp:137] Memory required for data: 3501420
I1016 17:18:37.074499  5710 layer_factory.hpp:77] Creating layer conv2
I1016 17:18:37.074640  5710 net.cpp:84] Creating Layer conv2
I1016 17:18:37.074647  5710 net.cpp:406] conv2 <- norm1
I1016 17:18:37.074654  5710 net.cpp:380] conv2 -> conv2
I1016 17:18:37.075388  5710 net.cpp:122] Setting up conv2
I1016 17:18:37.075433  5710 net.cpp:129] Top shape: 1 256 27 27 (186624)
I1016 17:18:37.075464  5710 net.cpp:137] Memory required for data: 4247916
I1016 17:18:37.075498  5710 layer_factory.hpp:77] Creating layer relu2
I1016 17:18:37.075646  5710 net.cpp:84] Creating Layer relu2
I1016 17:18:37.075678  5710 net.cpp:406] relu2 <- conv2
I1016 17:18:37.075717  5710 net.cpp:367] relu2 -> conv2 (in-place)
I1016 17:18:37.075749  5710 net.cpp:122] Setting up relu2
I1016 17:18:37.075788  5710 net.cpp:129] Top shape: 1 256 27 27 (186624)
I1016 17:18:37.075817  5710 net.cpp:137] Memory required for data: 4994412
I1016 17:18:37.075845  5710 layer_factory.hpp:77] Creating layer pool2
I1016 17:18:37.075876  5710 net.cpp:84] Creating Layer pool2
I1016 17:18:37.075906  5710 net.cpp:406] pool2 <- conv2
I1016 17:18:37.075937  5710 net.cpp:380] pool2 -> pool2
I1016 17:18:37.075970  5710 net.cpp:122] Setting up pool2
I1016 17:18:37.076001  5710 net.cpp:129] Top shape: 1 256 13 13 (43264)
I1016 17:18:37.076148  5710 net.cpp:137] Memory required for data: 5167468
I1016 17:18:37.076177  5710 layer_factory.hpp:77] Creating layer norm2
I1016 17:18:37.076215  5710 net.cpp:84] Creating Layer norm2
I1016 17:18:37.076252  5710 net.cpp:406] norm2 <- pool2
I1016 17:18:37.076284  5710 net.cpp:380] norm2 -> norm2
I1016 17:18:37.076319  5710 net.cpp:122] Setting up norm2
I1016 17:18:37.076351  5710 net.cpp:129] Top shape: 1 256 13 13 (43264)
I1016 17:18:37.076380  5710 net.cpp:137] Memory required for data: 5340524
I1016 17:18:37.076409  5710 layer_factory.hpp:77] Creating layer conv3
I1016 17:18:37.076442  5710 net.cpp:84] Creating Layer conv3
I1016 17:18:37.076472  5710 net.cpp:406] conv3 <- norm2
I1016 17:18:37.076503  5710 net.cpp:380] conv3 -> conv3
I1016 17:18:37.077635  5710 net.cpp:122] Setting up conv3
I1016 17:18:37.077683  5710 net.cpp:129] Top shape: 1 384 13 13 (64896)
I1016 17:18:37.077713  5710 net.cpp:137] Memory required for data: 5600108
I1016 17:18:37.077750  5710 layer_factory.hpp:77] Creating layer relu3
I1016 17:18:37.077785  5710 net.cpp:84] Creating Layer relu3
I1016 17:18:37.077814  5710 net.cpp:406] relu3 <- conv3
I1016 17:18:37.077846  5710 net.cpp:367] relu3 -> conv3 (in-place)
I1016 17:18:37.077878  5710 net.cpp:122] Setting up relu3
I1016 17:18:37.077909  5710 net.cpp:129] Top shape: 1 384 13 13 (64896)
I1016 17:18:37.077937  5710 net.cpp:137] Memory required for data: 5859692
I1016 17:18:37.077966  5710 layer_factory.hpp:77] Creating layer conv4
I1016 17:18:37.077999  5710 net.cpp:84] Creating Layer conv4
I1016 17:18:37.078146  5710 net.cpp:406] conv4 <- conv3
I1016 17:18:37.078181  5710 net.cpp:380] conv4 -> conv4
I1016 17:18:37.079800  5710 net.cpp:122] Setting up conv4
I1016 17:18:37.079870  5710 net.cpp:129] Top shape: 1 384 13 13 (64896)
I1016 17:18:37.079902  5710 net.cpp:137] Memory required for data: 6119276
I1016 17:18:37.079936  5710 layer_factory.hpp:77] Creating layer relu4
I1016 17:18:37.079968  5710 net.cpp:84] Creating Layer relu4
I1016 17:18:37.079999  5710 net.cpp:406] relu4 <- conv4
I1016 17:18:37.080152  5710 net.cpp:367] relu4 -> conv4 (in-place)
I1016 17:18:37.080189  5710 net.cpp:122] Setting up relu4
I1016 17:18:37.080220  5710 net.cpp:129] Top shape: 1 384 13 13 (64896)
I1016 17:18:37.080250  5710 net.cpp:137] Memory required for data: 6378860
I1016 17:18:37.080278  5710 layer_factory.hpp:77] Creating layer conv5
I1016 17:18:37.080312  5710 net.cpp:84] Creating Layer conv5
I1016 17:18:37.080341  5710 net.cpp:406] conv5 <- conv4
I1016 17:18:37.080373  5710 net.cpp:380] conv5 -> conv5
I1016 17:18:37.081284  5710 net.cpp:122] Setting up conv5
I1016 17:18:37.084334  5710 net.cpp:129] Top shape: 1 256 13 13 (43264)
I1016 17:18:37.084403  5710 net.cpp:137] Memory required for data: 6551916
I1016 17:18:37.084470  5710 layer_factory.hpp:77] Creating layer relu5
I1016 17:18:37.084643  5710 net.cpp:84] Creating Layer relu5
I1016 17:18:37.084682  5710 net.cpp:406] relu5 <- conv5
I1016 17:18:37.084718  5710 net.cpp:367] relu5 -> conv5 (in-place)
I1016 17:18:37.084758  5710 net.cpp:122] Setting up relu5
I1016 17:18:37.084791  5710 net.cpp:129] Top shape: 1 256 13 13 (43264)
I1016 17:18:37.084974  5710 net.cpp:137] Memory required for data: 6724972
I1016 17:18:37.085149  5710 layer_factory.hpp:77] Creating layer pool5
I1016 17:18:37.085188  5710 net.cpp:84] Creating Layer pool5
I1016 17:18:37.085219  5710 net.cpp:406] pool5 <- conv5
I1016 17:18:37.085252  5710 net.cpp:380] pool5 -> pool5
I1016 17:18:37.085291  5710 net.cpp:122] Setting up pool5
I1016 17:18:37.085325  5710 net.cpp:129] Top shape: 1 256 6 6 (9216)
I1016 17:18:37.085353  5710 net.cpp:137] Memory required for data: 6761836
I1016 17:18:37.085382  5710 layer_factory.hpp:77] Creating layer fc6
I1016 17:18:37.085422  5710 net.cpp:84] Creating Layer fc6
I1016 17:18:37.085453  5710 net.cpp:406] fc6 <- pool5
I1016 17:18:37.085484  5710 net.cpp:380] fc6 -> fc6
I1016 17:18:37.176280  5710 net.cpp:122] Setting up fc6
I1016 17:18:37.176415  5710 net.cpp:129] Top shape: 1 4096 (4096)
I1016 17:18:37.176450  5710 net.cpp:137] Memory required for data: 6778220
I1016 17:18:37.176498  5710 layer_factory.hpp:77] Creating layer relu6
I1016 17:18:37.176688  5710 net.cpp:84] Creating Layer relu6
I1016 17:18:37.176728  5710 net.cpp:406] relu6 <- fc6
I1016 17:18:37.176764  5710 net.cpp:367] relu6 -> fc6 (in-place)
I1016 17:18:37.176803  5710 net.cpp:122] Setting up relu6
I1016 17:18:37.176836  5710 net.cpp:129] Top shape: 1 4096 (4096)
I1016 17:18:37.176865  5710 net.cpp:137] Memory required for data: 6794604
I1016 17:18:37.176893  5710 layer_factory.hpp:77] Creating layer drop6
I1016 17:18:37.176929  5710 net.cpp:84] Creating Layer drop6
I1016 17:18:37.176959  5710 net.cpp:406] drop6 <- fc6
I1016 17:18:37.176990  5710 net.cpp:367] drop6 -> fc6 (in-place)
I1016 17:18:37.177162  5710 net.cpp:122] Setting up drop6
I1016 17:18:37.177206  5710 net.cpp:129] Top shape: 1 4096 (4096)
I1016 17:18:37.177234  5710 net.cpp:137] Memory required for data: 6810988
I1016 17:18:37.177263  5710 layer_factory.hpp:77] Creating layer fc7
I1016 17:18:37.177296  5710 net.cpp:84] Creating Layer fc7
I1016 17:18:37.177326  5710 net.cpp:406] fc7 <- fc6
I1016 17:18:37.177361  5710 net.cpp:380] fc7 -> fc7
I1016 17:18:37.239776  5710 net.cpp:122] Setting up fc7
I1016 17:18:37.239881  5710 net.cpp:129] Top shape: 1 4096 (4096)
I1016 17:18:37.239914  5710 net.cpp:137] Memory required for data: 6827372
I1016 17:18:37.239950  5710 layer_factory.hpp:77] Creating layer relu7
I1016 17:18:37.239986  5710 net.cpp:84] Creating Layer relu7
I1016 17:18:37.240017  5710 net.cpp:406] relu7 <- fc7
I1016 17:18:37.240175  5710 net.cpp:367] relu7 -> fc7 (in-place)
I1016 17:18:37.240214  5710 net.cpp:122] Setting up relu7
I1016 17:18:37.240247  5710 net.cpp:129] Top shape: 1 4096 (4096)
I1016 17:18:37.240298  5710 net.cpp:137] Memory required for data: 6843756
I1016 17:18:37.240329  5710 layer_factory.hpp:77] Creating layer drop7
I1016 17:18:37.240360  5710 net.cpp:84] Creating Layer drop7
I1016 17:18:37.240391  5710 net.cpp:406] drop7 <- fc7
I1016 17:18:37.240423  5710 net.cpp:367] drop7 -> fc7 (in-place)
I1016 17:18:37.240459  5710 net.cpp:122] Setting up drop7
I1016 17:18:37.240490  5710 net.cpp:129] Top shape: 1 4096 (4096)
I1016 17:18:37.240520  5710 net.cpp:137] Memory required for data: 6860140
I1016 17:18:37.240667  5710 layer_factory.hpp:77] Creating layer fc8
I1016 17:18:37.240701  5710 net.cpp:84] Creating Layer fc8
I1016 17:18:37.240731  5710 net.cpp:406] fc8 <- fc7
I1016 17:18:37.240762  5710 net.cpp:380] fc8 -> fc8
I1016 17:18:37.246937  5710 net.cpp:122] Setting up fc8
I1016 17:18:37.247030  5710 net.cpp:129] Top shape: 1 1000 (1000)
I1016 17:18:37.247176  5710 net.cpp:137] Memory required for data: 6864140
I1016 17:18:37.247213  5710 layer_factory.hpp:77] Creating layer prob
I1016 17:18:37.247251  5710 net.cpp:84] Creating Layer prob
I1016 17:18:37.247282  5710 net.cpp:406] prob <- fc8
I1016 17:18:37.247313  5710 net.cpp:380] prob -> prob
I1016 17:18:37.247354  5710 net.cpp:122] Setting up prob
I1016 17:18:37.247386  5710 net.cpp:129] Top shape: 1 1000 (1000)
I1016 17:18:37.247416  5710 net.cpp:137] Memory required for data: 6868140
I1016 17:18:37.247444  5710 net.cpp:200] prob does not need backward computation.
I1016 17:18:37.247478  5710 net.cpp:200] fc8 does not need backward computation.
I1016 17:18:37.247509  5710 net.cpp:200] drop7 does not need backward computation.
I1016 17:18:37.247735  5710 net.cpp:200] relu7 does not need backward computation.
…
