gaston@ML-Ubuntu-VB:~/caffe_repo/caffe/project/curvas_y_lineas$ ../../build/tools/caffe time -model deploy.prototxt -weights mytrain_iter_2500.caffemodel -iterations 10
I1016 10:49:38.099634  3269 caffe.cpp:352] Use CPU.
I1016 10:49:38.103454  3269 net.cpp:51] Initializing net from parameters: 
name: "CaffeNet"
state {
  phase: TRAIN
  level: 0
  stage: ""
}
layer {
  name: "data"
  type: "Input"
  top: "data"
  input_param {
    shape {
      dim: 1
      dim: 1
      dim: 100
      dim: 100
    }
  }
}
layer {
  name: "conv1"
  type: "Convolution"
  bottom: "data"
  top: "conv1"
  convolution_param {
    num_output: 30
    kernel_size: 5
    stride: 1
  }
}
layer {
  name: "pool1"
  type: "Pooling"
  bottom: "conv1"
  top: "pool1"
  pooling_param {
    pool: MAX
    kernel_size: 2
    stride: 2
  }
}
layer {
  name: "conv2"
  type: "Convolution"
  bottom: "pool1"
  top: "conv2"
  convolution_param {
    num_output: 50
    kernel_size: 5
    stride: 1
  }
}
layer {
  name: "pool2"
  type: "Pooling"
  bottom: "conv2"
  top: "pool2"
  pooling_param {
    pool: MAX
    kernel_size: 2
    stride: 2
  }
}
layer {
  name: "ip1"
  type: "InnerProduct"
  bottom: "pool2"
  top: "ip1"
  inner_product_param {
    num_output: 500
  }
}
layer {
  name: "relu1"
  type: "ReLU"
  bottom: "ip1"
  top: "ip1"
}
layer {
  name: "ip2"
  type: "InnerProduct"
  bottom: "ip1"
  top: "ip2"
  inner_product_param {
    num_output: 2
  }
}
layer {
  name: "prob"
  type: "Softmax"
  bottom: "ip2"
  top: "prob"
}
I1016 10:49:38.103802  3269 layer_factory.hpp:77] Creating layer data
I1016 10:49:38.103821  3269 net.cpp:84] Creating Layer data
I1016 10:49:38.103828  3269 net.cpp:380] data -> data
I1016 10:49:38.103853  3269 net.cpp:122] Setting up data
I1016 10:49:38.103866  3269 net.cpp:129] Top shape: 1 1 100 100 (10000)
I1016 10:49:38.103871  3269 net.cpp:137] Memory required for data: 40000
I1016 10:49:38.103878  3269 layer_factory.hpp:77] Creating layer conv1
I1016 10:49:38.103888  3269 net.cpp:84] Creating Layer conv1
I1016 10:49:38.103893  3269 net.cpp:406] conv1 <- data
I1016 10:49:38.103901  3269 net.cpp:380] conv1 -> conv1
I1016 10:49:38.103946  3269 net.cpp:122] Setting up conv1
I1016 10:49:38.103956  3269 net.cpp:129] Top shape: 1 30 96 96 (276480)
I1016 10:49:38.103960  3269 net.cpp:137] Memory required for data: 1145920
I1016 10:49:38.103976  3269 layer_factory.hpp:77] Creating layer pool1
I1016 10:49:38.103984  3269 net.cpp:84] Creating Layer pool1
I1016 10:49:38.103989  3269 net.cpp:406] pool1 <- conv1
I1016 10:49:38.103996  3269 net.cpp:380] pool1 -> pool1
I1016 10:49:38.104010  3269 net.cpp:122] Setting up pool1
I1016 10:49:38.104017  3269 net.cpp:129] Top shape: 1 30 48 48 (69120)
I1016 10:49:38.104022  3269 net.cpp:137] Memory required for data: 1422400
I1016 10:49:38.104025  3269 layer_factory.hpp:77] Creating layer conv2
I1016 10:49:38.104032  3269 net.cpp:84] Creating Layer conv2
I1016 10:49:38.104037  3269 net.cpp:406] conv2 <- pool1
I1016 10:49:38.104043  3269 net.cpp:380] conv2 -> conv2
I1016 10:49:38.104104  3269 net.cpp:122] Setting up conv2
I1016 10:49:38.104111  3269 net.cpp:129] Top shape: 1 50 44 44 (96800)
I1016 10:49:38.104115  3269 net.cpp:137] Memory required for data: 1809600
I1016 10:49:38.104123  3269 layer_factory.hpp:77] Creating layer pool2
I1016 10:49:38.104130  3269 net.cpp:84] Creating Layer pool2
I1016 10:49:38.104135  3269 net.cpp:406] pool2 <- conv2
I1016 10:49:38.104140  3269 net.cpp:380] pool2 -> pool2
I1016 10:49:38.104148  3269 net.cpp:122] Setting up pool2
I1016 10:49:38.104154  3269 net.cpp:129] Top shape: 1 50 22 22 (24200)
I1016 10:49:38.104158  3269 net.cpp:137] Memory required for data: 1906400
I1016 10:49:38.104163  3269 layer_factory.hpp:77] Creating layer ip1
I1016 10:49:38.104169  3269 net.cpp:84] Creating Layer ip1
I1016 10:49:38.104173  3269 net.cpp:406] ip1 <- pool2
I1016 10:49:38.104291  3269 net.cpp:380] ip1 -> ip1
I1016 10:49:38.213521  3269 net.cpp:122] Setting up ip1
I1016 10:49:38.213606  3269 net.cpp:129] Top shape: 1 500 (500)
I1016 10:49:38.213613  3269 net.cpp:137] Memory required for data: 1908400
I1016 10:49:38.213629  3269 layer_factory.hpp:77] Creating layer relu1
I1016 10:49:38.213640  3269 net.cpp:84] Creating Layer relu1
I1016 10:49:38.213646  3269 net.cpp:406] relu1 <- ip1
I1016 10:49:38.213655  3269 net.cpp:367] relu1 -> ip1 (in-place)
I1016 10:49:38.213688  3269 net.cpp:122] Setting up relu1
I1016 10:49:38.213696  3269 net.cpp:129] Top shape: 1 500 (500)
I1016 10:49:38.213701  3269 net.cpp:137] Memory required for data: 1910400
I1016 10:49:38.213706  3269 layer_factory.hpp:77] Creating layer ip2
I1016 10:49:38.213712  3269 net.cpp:84] Creating Layer ip2
I1016 10:49:38.213717  3269 net.cpp:406] ip2 <- ip1
I1016 10:49:38.213724  3269 net.cpp:380] ip2 -> ip2
I1016 10:49:38.213850  3269 net.cpp:122] Setting up ip2
I1016 10:49:38.213863  3269 net.cpp:129] Top shape: 1 2 (2)
I1016 10:49:38.213868  3269 net.cpp:137] Memory required for data: 1910408
I1016 10:49:38.213876  3269 layer_factory.hpp:77] Creating layer prob
I1016 10:49:38.213891  3269 net.cpp:84] Creating Layer prob
I1016 10:49:38.213896  3269 net.cpp:406] prob <- ip2
I1016 10:49:38.213902  3269 net.cpp:380] prob -> prob
I1016 10:49:38.213912  3269 net.cpp:122] Setting up prob
I1016 10:49:38.213917  3269 net.cpp:129] Top shape: 1 2 (2)
I1016 10:49:38.213922  3269 net.cpp:137] Memory required for data: 1910416
I1016 10:49:38.213927  3269 net.cpp:200] prob does not need backward computation.
I1016 10:49:38.213935  3269 net.cpp:200] ip2 does not need backward computation.
I1016 10:49:38.213940  3269 net.cpp:200] relu1 does not need backward computation.
I1016 10:49:38.213945  3269 net.cpp:200] ip1 does not need backward computation.
…
