…
I1015 23:24:33.380112 11480 net.cpp:294] The NetState phase (0) differed from the phase (1) specified by a rule in layer data
I1015 23:24:33.380170 11480 net.cpp:294] The NetState phase (0) differed from the phase (1) specified by a rule in layer accuracy
I1015 23:24:33.380228 11480 net.cpp:51] Initializing net from parameters: 
name: "CaffeNet"
state {
  phase: TRAIN
  level: 0
  stage: ""
}
layer {
  name: "data"
  type: "Data"
  top: "data"
  top: "label"
  include {
    phase: TRAIN
  }
  transform_param {
    mirror: false
    crop_size: 100
    mean_file: "mean.binaryproto"
  }
  data_param {
    source: "mylistdb"
    batch_size: 100
    backend: LMDB
  }
}
layer {
  name: "conv1"
  type: "Convolution"
  bottom: "data"
  top: "conv1"
  param {
    lr_mult: 1
  }
  param {
    lr_mult: 2
  }
  convolution_param {
    num_output: 30
    kernel_size: 5
    stride: 1
    weight_filler {
      type: "xavier"
    }
    bias_filler {
      type: "constant"
    }
  }
}
layer {
  name: "pool1"
  type: "Pooling"
  bottom: "conv1"
  top: "pool1"
  pooling_param {
    pool: MAX
    kernel_size: 2
    stride: 2
  }
}
layer {
  name: "conv2"
  type: "Convolution"
  bottom: "pool1"
  top: "conv2"
  param {
    lr_mult: 1
  }
  param {
    lr_mult: 2
  }
  convolution_param {
    num_output: 50
    kernel_size: 5
    stride: 1
    weight_filler {
      type: "xavier"
    }
    bias_filler {
      type: "constant"
    }
  }
}
layer {
  name: "pool2"
  type: "Pooling"
  bottom: "conv2"
  top: "pool2"
  pooling_param {
    pool: MAX
    kernel_size: 2
    stride: 2
  }
}
layer {
  name: "ip1"
  type: "InnerProduct"
  bottom: "pool2"
  top: "ip1"
  param {
    lr_mult: 1
  }
  param {
    lr_mult: 2
  }
  inner_product_param {
    num_output: 500
    weight_filler {
      type: "xavier"
    }
    bias_filler {
      type: "constant"
    }
  }
}
layer {
  name: "relu1"
  type: "ReLU"
  bottom: "ip1"
  top: "ip1"
}
layer {
  name: "ip2"
  type: "InnerProduct"
  bottom: "ip1"
  top: "ip2"
  param {
    lr_mult: 1
  }
  param {
    lr_mult: 2
  }
  inner_product_param {
    num_output: 2
    weight_filler {
      type: "xavier"
    }
    bias_filler {
      type: "constant"
    }
  }
}
layer {
  name: "loss"
  type: "SoftmaxWithLoss"
  bottom: "ip2"
  bottom: "label"
  top: "loss"
}
I1015 23:24:33.380864 11480 layer_factory.hpp:77] Creating layer data
I1015 23:24:33.381299 11480 db_lmdb.cpp:35] Opened lmdb mylistdb
I1015 23:24:33.381371 11480 net.cpp:84] Creating Layer data
I1015 23:24:33.381381 11480 net.cpp:380] data -> data
I1015 23:24:33.381666 11480 net.cpp:380] data -> label
I1015 23:24:33.381722 11480 data_transformer.cpp:25] Loading mean file from: mean.binaryproto
I1015 23:24:33.381876 11480 data_layer.cpp:45] output data size: 100,1,100,100
I1015 23:24:33.382141 11480 net.cpp:122] Setting up data
I1015 23:24:33.382192 11480 net.cpp:129] Top shape: 100 1 100 100 (1000000)
I1015 23:24:33.382200 11480 net.cpp:129] Top shape: 100 (100)
I1015 23:24:33.382205 11480 net.cpp:137] Memory required for data: 4000400
I1015 23:24:33.382212 11480 layer_factory.hpp:77] Creating layer conv1
I1015 23:24:33.382226 11480 net.cpp:84] Creating Layer conv1
I1015 23:24:33.382233 11480 net.cpp:406] conv1 <- data
I1015 23:24:33.382244 11480 net.cpp:380] conv1 -> conv1
I1015 23:24:33.382285 11480 net.cpp:122] Setting up conv1
I1015 23:24:33.382294 11480 net.cpp:129] Top shape: 100 30 96 96 (27648000)
I1015 23:24:33.382299 11480 net.cpp:137] Memory required for data: 114592400
I1015 23:24:33.382315 11480 layer_factory.hpp:77] Creating layer pool1
I1015 23:24:33.382324 11480 net.cpp:84] Creating Layer pool1
I1015 23:24:33.382341 11480 net.cpp:406] pool1 <- conv1
I1015 23:24:33.382349 11480 net.cpp:380] pool1 -> pool1
I1015 23:24:33.382362 11480 net.cpp:122] Setting up pool1
I1015 23:24:33.382370 11480 net.cpp:129] Top shape: 100 30 48 48 (6912000)
I1015 23:24:33.382375 11480 net.cpp:137] Memory required for data: 142240400
I1015 23:24:33.382380 11480 layer_factory.hpp:77] Creating layer conv2
I1015 23:24:33.382387 11480 net.cpp:84] Creating Layer conv2
I1015 23:24:33.382392 11480 net.cpp:406] conv2 <- pool1
I1015 23:24:33.382400 11480 net.cpp:380] conv2 -> conv2
I1015 23:24:33.382915 11480 net.cpp:122] Setting up conv2
I1015 23:24:33.382930 11480 net.cpp:129] Top shape: 100 50 44 44 (9680000)
I1015 23:24:33.382935 11480 net.cpp:137] Memory required for data: 180960400
I1015 23:24:33.383074 11480 layer_factory.hpp:77] Creating layer pool2
I1015 23:24:33.383085 11480 net.cpp:84] Creating Layer pool2
I1015 23:24:33.383091 11480 net.cpp:406] pool2 <- conv2
I1015 23:24:33.383097 11480 net.cpp:380] pool2 -> pool2
I1015 23:24:33.383106 11480 net.cpp:122] Setting up pool2
I1015 23:24:33.383113 11480 net.cpp:129] Top shape: 100 50 22 22 (2420000)
I1015 23:24:33.383118 11480 net.cpp:137] Memory required for data: 190640400
I1015 23:24:33.383122 11480 layer_factory.hpp:77] Creating layer ip1
I1015 23:24:33.383131 11480 net.cpp:84] Creating Layer ip1
I1015 23:24:33.383136 11480 net.cpp:406] ip1 <- pool2
I1015 23:24:33.383142 11480 net.cpp:380] ip1 -> ip1
I1015 23:24:33.474766 11480 net.cpp:122] Setting up ip1
I1015 23:24:33.475639 11480 net.cpp:129] Top shape: 100 500 (50000)
I1015 23:24:33.475646 11480 net.cpp:137] Memory required for data: 190840400
I1015 23:24:33.475661 11480 layer_factory.hpp:77] Creating layer relu1
I1015 23:24:33.475669 11480 net.cpp:84] Creating Layer relu1
I1015 23:24:33.475673 11480 net.cpp:406] relu1 <- ip1
I1015 23:24:33.475678 11480 net.cpp:367] relu1 -> ip1 (in-place)
I1015 23:24:33.475837 11480 net.cpp:122] Setting up relu1
I1015 23:24:33.475883 11480 net.cpp:129] Top shape: 100 500 (50000)
I1015 23:24:33.475885 11480 net.cpp:137] Memory required for data: 191040400
I1015 23:24:33.475888 11480 layer_factory.hpp:77] Creating layer ip2
I1015 23:24:33.475894 11480 net.cpp:84] Creating Layer ip2
I1015 23:24:33.475898 11480 net.cpp:406] ip2 <- ip1
I1015 23:24:33.475901 11480 net.cpp:380] ip2 -> ip2
I1015 23:24:33.475921 11480 net.cpp:122] Setting up ip2
I1015 23:24:33.475925 11480 net.cpp:129] Top shape: 100 2 (200)
I1015 23:24:33.475927 11480 net.cpp:137] Memory required for data: 191041200
I1015 23:24:33.475931 11480 layer_factory.hpp:77] Creating layer loss
I1015 23:24:33.475937 11480 net.cpp:84] Creating Layer loss
I1015 23:24:33.475940 11480 net.cpp:406] loss <- ip2
I1015 23:24:33.475944 11480 net.cpp:406] loss <- label
I1015 23:24:33.475949 11480 net.cpp:380] loss -> loss
I1015 23:24:33.475956 11480 layer_factory.hpp:77] Creating layer loss
…
I1015 23:24:33.476397 11480 solver.cpp:172] Creating test net (#0) specified by net file: train_val.prototxt
I1015 23:24:33.476608 11480 net.cpp:294] The NetState phase (1) differed from the phase (0) specified by a rule in layer data
I1015 23:24:33.476676 11480 net.cpp:51] Initializing net from parameters: 
name: "CaffeNet"
state {
  phase: TEST
}
layer {
  name: "data"
  type: "Data"
  top: "data"
  top: "label"
  include {
    phase: TEST
  }
  transform_param {
    mirror: false
    crop_size: 100
    mean_file: "mean.binaryproto"
  }
  data_param {
    source: "mytestlistdb"
    batch_size: 40
    backend: LMDB
  }
}
layer {
  name: "conv1"
  type: "Convolution"
  bottom: "data"
  top: "conv1"
  param {
    lr_mult: 1
  }
  param {
    lr_mult: 2
  }
  convolution_param {
    num_output: 30
    kernel_size: 5
    stride: 1
    weight_filler {
      type: "xavier"
    }
    bias_filler {
      type: "constant"
    }
  }
}
layer {
  name: "pool1"
  type: "Pooling"
  bottom: "conv1"
  top: "pool1"
  pooling_param {
    pool: MAX
    kernel_size: 2
    stride: 2
  }
}
layer {
  name: "conv2"
  type: "Convolution"
  bottom: "pool1"
  top: "conv2"
  param {
    lr_mult: 1
  }
  param {
    lr_mult: 2
  }
  convolution_param {
    num_output: 50
    kernel_size: 5
    stride: 1
    weight_filler {
      type: "xavier"
    }
    bias_filler {
      type: "constant"
    }
  }
}
layer {
  name: "pool2"
  type: "Pooling"
  bottom: "conv2"
  top: "pool2"
  pooling_param {
    pool: MAX
    kernel_size: 2
    stride: 2
  }
}
layer {
  name: "ip1"
  type: "InnerProduct"
  bottom: "pool2"
  top: "ip1"
  param {
    lr_mult: 1
  }
  param {
    lr_mult: 2
  }
  inner_product_param {
    num_output: 500
    weight_filler {
      type: "xavier"
    }
    bias_filler {
      type: "constant"
    }
  }
}
layer {
  name: "relu1"
  type: "ReLU"
  bottom: "ip1"
  top: "ip1"
}
layer {
  name: "ip2"
  type: "InnerProduct"
  bottom: "ip1"
  top: "ip2"
  param {
    lr_mult: 1
  }
  param {
    lr_mult: 2
  }
  inner_product_param {
    num_output: 2
    weight_filler {
      type: "xavier"
    }
    bias_filler {
      type: "constant"
    }
  }
}
layer {
  name: "accuracy"
  type: "Accuracy"
  bottom: "ip2"
  bottom: "label"
  top: "accuracy"
  include {
    phase: TEST
  }
}
layer {
  name: "loss"
  type: "SoftmaxWithLoss"
  bottom: "ip2"
  bottom: "label"
  top: "loss"
}
I1015 23:24:33.476758 11480 layer_factory.hpp:77] Creating layer data
I1015 23:24:33.476809 11480 db_lmdb.cpp:35] Opened lmdb mytestlistdb
I1015 23:24:33.476821 11480 net.cpp:84] Creating Layer data
I1015 23:24:33.476826 11480 net.cpp:380] data -> data
I1015 23:24:33.476833 11480 net.cpp:380] data -> label
I1015 23:24:33.476838 11480 data_transformer.cpp:25] Loading mean file from: mean.binaryproto
I1015 23:24:33.477262 11480 data_layer.cpp:45] output data size: 40,1,100,100
I1015 23:24:33.477380 11480 net.cpp:122] Setting up data
I1015 23:24:33.477388 11480 net.cpp:129] Top shape: 40 1 100 100 (400000)
I1015 23:24:33.477392 11480 net.cpp:129] Top shape: 40 (40)
I1015 23:24:33.477394 11480 net.cpp:137] Memory required for data: 1600160
I1015 23:24:33.477397 11480 layer_factory.hpp:77] Creating layer label_data_1_split
I1015 23:24:33.477403 11480 net.cpp:84] Creating Layer label_data_1_split
I1015 23:24:33.477406 11480 net.cpp:406] label_data_1_split <- label
I1015 23:24:33.477411 11480 net.cpp:380] label_data_1_split -> label_data_1_split_0
I1015 23:24:33.477416 11480 net.cpp:380] label_data_1_split -> label_data_1_split_1
I1015 23:24:33.477421 11480 net.cpp:122] Setting up label_data_1_split
I1015 23:24:33.477425 11480 net.cpp:129] Top shape: 40 (40)
I1015 23:24:33.477427 11480 net.cpp:129] Top shape: 40 (40)
I1015 23:24:33.477429 11480 net.cpp:137] Memory required for data: 1600480
I1015 23:24:33.477432 11480 layer_factory.hpp:77] Creating layer conv1
I1015 23:24:33.477438 11480 net.cpp:84] Creating Layer conv1
I1015 23:24:33.477442 11480 net.cpp:406] conv1 <- data
I1015 23:24:33.477445 11480 net.cpp:380] conv1 -> conv1
I1015 23:24:33.477732 11480 net.cpp:122] Setting up conv1
I1015 23:24:33.477741 11480 net.cpp:129] Top shape: 40 30 96 96 (11059200)
I1015 23:24:33.477744 11480 net.cpp:137] Memory required for data: 45837280
I1015 23:24:33.477762 11480 layer_factory.hpp:77] Creating layer pool1
I1015 23:24:33.477767 11480 net.cpp:84] Creating Layer pool1
I1015 23:24:33.477771 11480 net.cpp:406] pool1 <- conv1
I1015 23:24:33.477774 11480 net.cpp:380] pool1 -> pool1
I1015 23:24:33.477782 11480 net.cpp:122] Setting up pool1
I1015 23:24:33.477784 11480 net.cpp:129] Top shape: 40 30 48 48 (2764800)
I1015 23:24:33.477787 11480 net.cpp:137] Memory required for data: 56896480
I1015 23:24:33.477789 11480 layer_factory.hpp:77] Creating layer conv2
I1015 23:24:33.477797 11480 net.cpp:84] Creating Layer conv2
I1015 23:24:33.477798 11480 net.cpp:406] conv2 <- pool1
I1015 23:24:33.477803 11480 net.cpp:380] conv2 -> conv2
I1015 23:24:33.478301 11480 net.cpp:122] Setting up conv2
I1015 23:24:33.478346 11480 net.cpp:129] Top shape: 40 50 44 44 (3872000)
I1015 23:24:33.478349 11480 net.cpp:137] Memory required for data: 72384480
I1015 23:24:33.478356 11480 layer_factory.hpp:77] Creating layer pool2
I1015 23:24:33.478360 11480 net.cpp:84] Creating Layer pool2
I1015 23:24:33.478363 11480 net.cpp:406] pool2 <- conv2
I1015 23:24:33.478368 11480 net.cpp:380] pool2 -> pool2
I1015 23:24:33.478374 11480 net.cpp:122] Setting up pool2
I1015 23:24:33.478376 11480 net.cpp:129] Top shape: 40 50 22 22 (968000)
I1015 23:24:33.478379 11480 net.cpp:137] Memory required for data: 76256480
I1015 23:24:33.478381 11480 layer_factory.hpp:77] Creating layer ip1
I1015 23:24:33.478386 11480 net.cpp:84] Creating Layer ip1
I1015 23:24:33.478389 11480 net.cpp:406] ip1 <- pool2
I1015 23:24:33.478394 11480 net.cpp:380] ip1 -> ip1
I1015 23:24:33.576450 11480 net.cpp:122] Setting up ip1
I1015 23:24:33.576653 11480 net.cpp:129] Top shape: 40 500 (20000)
I1015 23:24:33.576660 11480 net.cpp:137] Memory required for data: 76336480
I1015 23:24:33.576676 11480 layer_factory.hpp:77] Creating layer relu1
I1015 23:24:33.576687 11480 net.cpp:84] Creating Layer relu1
I1015 23:24:33.576694 11480 net.cpp:406] relu1 <- ip1
I1015 23:24:33.576701 11480 net.cpp:367] relu1 -> ip1 (in-place)
I1015 23:24:33.576710 11480 net.cpp:122] Setting up relu1
I1015 23:24:33.576716 11480 net.cpp:129] Top shape: 40 500 (20000)
I1015 23:24:33.576721 11480 net.cpp:137] Memory required for data: 76416480
I1015 23:24:33.576725 11480 layer_factory.hpp:77] Creating layer ip2
I1015 23:24:33.576737 11480 net.cpp:84] Creating Layer ip2
I1015 23:24:33.576743 11480 net.cpp:406] ip2 <- ip1
I1015 23:24:33.576750 11480 net.cpp:380] ip2 -> ip2
I1015 23:24:33.576772 11480 net.cpp:122] Setting up ip2
I1015 23:24:33.576779 11480 net.cpp:129] Top shape: 40 2 (80)
I1015 23:24:33.576784 11480 net.cpp:137] Memory required for data: 76416800
I1015 23:24:33.576792 11480 layer_factory.hpp:77] Creating layer ip2_ip2_0_split
I1015 23:24:33.576798 11480 net.cpp:84] Creating Layer ip2_ip2_0_split
I1015 23:24:33.576803 11480 net.cpp:406] ip2_ip2_0_split <- ip2
I1015 23:24:33.576810 11480 net.cpp:380] ip2_ip2_0_split -> ip2_ip2_0_split_0
I1015 23:24:33.576818 11480 net.cpp:380] ip2_ip2_0_split -> ip2_ip2_0_split_1
I1015 23:24:33.576827 11480 net.cpp:122] Setting up ip2_ip2_0_split
I1015 23:24:33.577292 11480 net.cpp:129] Top shape: 40 2 (80)
I1015 23:24:33.577301 11480 net.cpp:129] Top shape: 40 2 (80)
I1015 23:24:33.577306 11480 net.cpp:137] Memory required for data: 76417440
I1015 23:24:33.577311 11480 layer_factory.hpp:77] Creating layer accuracy
I1015 23:24:33.577320 11480 net.cpp:84] Creating Layer accuracy
I1015 23:24:33.577327 11480 net.cpp:406] accuracy <- ip2_ip2_0_split_0
I1015 23:24:33.577340 11480 net.cpp:406] accuracy <- label_data_1_split_0
I1015 23:24:33.577347 11480 net.cpp:380] accuracy -> accuracy
…
