…
#!/usr/bin/env sh
set -e

../../build/tools/caffe time -model cifar10_quick.prototxt -weights cifar10_quick_iter_5000.caffemodel.h5 -iterations 100

gaston@orangepiplus2e:~/caffe_repo/caffe/project/Cifar10$ ./test.sh
I1020 03:06:03.683761  6204 caffe.cpp:352] Use CPU.
I1020 03:06:03.697500  6204 net.cpp:51] Initializing net from parameters:
name: "CIFAR10_quick_test"
state {
  phase: TRAIN
  level: 0
  stage: ""
}
layer {
  name: "data"
  type: "Input"
  top: "data"
  input_param {
    shape {
      dim: 1
      dim: 3
      dim: 32
      dim: 32
    }
  }
}
layer {
  name: "conv1"
  type: "Convolution"
  bottom: "data"
  top: "conv1"
  param {
    lr_mult: 1
  }
  param {
    lr_mult: 2
  }
  convolution_param {
    num_output: 32
    pad: 2
    kernel_size: 5
    stride: 1
  }
}
layer {
  name: "pool1"
  type: "Pooling"
  bottom: "conv1"
  top: "pool1"
  pooling_param {
    pool: MAX
    kernel_size: 3
    stride: 2
  }
}
layer {
  name: "relu1"
  type: "ReLU"
  bottom: "pool1"
  top: "pool1"
}
layer {
  name: "conv2"
  type: "Convolution"
  bottom: "pool1"
  top: "conv2"
  param {
    lr_mult: 1
  }
  param {
    lr_mult: 2
  }
  convolution_param {
    num_output: 32
    pad: 2
    kernel_size: 5
    stride: 1
  }
}
layer {
  name: "relu2"
  type: "ReLU"
  bottom: "conv2"
  top: "conv2"
}
layer {
  name: "pool2"
  type: "Pooling"
  bottom: "conv2"
  top: "pool2"
  pooling_param {
    pool: AVE
    kernel_size: 3
    stride: 2
  }
}
layer {
  name: "conv3"
  type: "Convolution"
  bottom: "pool2"
  top: "conv3"
  param {
    lr_mult: 1
  }
  param {
    lr_mult: 2
  }
  convolution_param {
    num_output: 64
    pad: 2
    kernel_size: 5
    stride: 1
  }
}
layer {
  name: "relu3"
  type: "ReLU"
  bottom: "conv3"
  top: "conv3"
}
layer {
  name: "pool3"
  type: "Pooling"
  bottom: "conv3"
  top: "pool3"
  pooling_param {
    pool: AVE
    kernel_size: 3
    stride: 2
  }
}
layer {
  name: "ip1"
  type: "InnerProduct"
  bottom: "pool3"
  top: "ip1"
  param {
    lr_mult: 1
  }
  param {
    lr_mult: 2
  }
  inner_product_param {
    num_output: 64
  }
}
layer {
  name: "ip2"
  type: "InnerProduct"
  bottom: "ip1"
  top: "ip2"
  param {
    lr_mult: 1
  }
  param {
    lr_mult: 2
  }
  inner_product_param {
    num_output: 10
  }
}
layer {
  name: "prob"
  type: "Softmax"
  bottom: "ip2"
  top: "prob"
}
I1020 03:06:03.706468  6204 layer_factory.hpp:77] Creating layer data
I1020 03:06:03.706722  6204 net.cpp:84] Creating Layer data
I1020 03:06:03.706882  6204 net.cpp:380] data -> data
I1020 03:06:03.707216  6204 net.cpp:122] Setting up data
I1020 03:06:03.707370  6204 net.cpp:129] Top shape: 1 3 32 32 (3072)
I1020 03:06:03.707567  6204 net.cpp:137] Memory required for data: 12288
I1020 03:06:03.707700  6204 layer_factory.hpp:77] Creating layer conv1
I1020 03:06:03.707876  6204 net.cpp:84] Creating Layer conv1
I1020 03:06:03.708003  6204 net.cpp:406] conv1 <- data
I1020 03:06:03.708135  6204 net.cpp:380] conv1 -> conv1
I1020 03:06:03.708667  6204 net.cpp:122] Setting up conv1
I1020 03:06:03.708803  6204 net.cpp:129] Top shape: 1 32 32 32 (32768)
I1020 03:06:03.708935  6204 net.cpp:137] Memory required for data: 143360
I1020 03:06:03.709177  6204 layer_factory.hpp:77] Creating layer pool1
I1020 03:06:03.709322  6204 net.cpp:84] Creating Layer pool1
I1020 03:06:03.709437  6204 net.cpp:406] pool1 <- conv1
I1020 03:06:03.709558  6204 net.cpp:380] pool1 -> pool1
I1020 03:06:03.709796  6204 net.cpp:122] Setting up pool1
I1020 03:06:03.709930  6204 net.cpp:129] Top shape: 1 32 16 16 (8192)
I1020 03:06:03.710037  6204 net.cpp:137] Memory required for data: 176128
I1020 03:06:03.710121  6204 layer_factory.hpp:77] Creating layer relu1
I1020 03:06:03.710242  6204 net.cpp:84] Creating Layer relu1
I1020 03:06:03.710357  6204 net.cpp:406] relu1 <- pool1
I1020 03:06:03.710470  6204 net.cpp:367] relu1 -> pool1 (in-place)
I1020 03:06:03.710603  6204 net.cpp:122] Setting up relu1
I1020 03:06:03.710706  6204 net.cpp:129] Top shape: 1 32 16 16 (8192)
I1020 03:06:03.710804  6204 net.cpp:137] Memory required for data: 208896
I1020 03:06:03.710886  6204 layer_factory.hpp:77] Creating layer conv2
I1020 03:06:03.710995  6204 net.cpp:84] Creating Layer conv2
I1020 03:06:03.711076  6204 net.cpp:406] conv2 <- pool1
I1020 03:06:03.711174  6204 net.cpp:380] conv2 -> conv2
I1020 03:06:03.711750  6204 net.cpp:122] Setting up conv2
I1020 03:06:03.711988  6204 net.cpp:129] Top shape: 1 32 16 16 (8192)
I1020 03:06:03.712105  6204 net.cpp:137] Memory required for data: 241664
I1020 03:06:03.712234  6204 layer_factory.hpp:77] Creating layer relu2
I1020 03:06:03.712335  6204 net.cpp:84] Creating Layer relu2
I1020 03:06:03.712417  6204 net.cpp:406] relu2 <- conv2
I1020 03:06:03.712510  6204 net.cpp:367] relu2 -> conv2 (in-place)
I1020 03:06:03.712610  6204 net.cpp:122] Setting up relu2
I1020 03:06:03.712692  6204 net.cpp:129] Top shape: 1 32 16 16 (8192)
I1020 03:06:03.712790  6204 net.cpp:137] Memory required for data: 274432
I1020 03:06:03.712870  6204 layer_factory.hpp:77] Creating layer pool2
I1020 03:06:03.712965  6204 net.cpp:84] Creating Layer pool2
I1020 03:06:03.713045  6204 net.cpp:406] pool2 <- conv2
I1020 03:06:03.713137  6204 net.cpp:380] pool2 -> pool2
I1020 03:06:03.713250  6204 net.cpp:122] Setting up pool2
I1020 03:06:03.713335  6204 net.cpp:129] Top shape: 1 32 8 8 (2048)
I1020 03:06:03.713430  6204 net.cpp:137] Memory required for data: 282624
I1020 03:06:03.713510  6204 layer_factory.hpp:77] Creating layer conv3
I1020 03:06:03.713613  6204 net.cpp:84] Creating Layer conv3
I1020 03:06:03.713695  6204 net.cpp:406] conv3 <- pool2
I1020 03:06:03.713793  6204 net.cpp:380] conv3 -> conv3
I1020 03:06:03.714644  6204 net.cpp:122] Setting up conv3
I1020 03:06:03.714855  6204 net.cpp:129] Top shape: 1 64 8 8 (4096)
I1020 03:06:03.714972  6204 net.cpp:137] Memory required for data: 299008
I1020 03:06:03.715108  6204 layer_factory.hpp:77] Creating layer relu3
I1020 03:06:03.715234  6204 net.cpp:84] Creating Layer relu3
I1020 03:06:03.715325  6204 net.cpp:406] relu3 <- conv3
I1020 03:06:03.715461  6204 net.cpp:367] relu3 -> conv3 (in-place)
I1020 03:06:03.715598  6204 net.cpp:122] Setting up relu3
I1020 03:06:03.715705  6204 net.cpp:129] Top shape: 1 64 8 8 (4096)
I1020 03:06:03.715823  6204 net.cpp:137] Memory required for data: 315392
I1020 03:06:03.715929  6204 layer_factory.hpp:77] Creating layer pool3
I1020 03:06:03.716028  6204 net.cpp:84] Creating Layer pool3
I1020 03:06:03.716130  6204 net.cpp:406] pool3 <- conv3
I1020 03:06:03.716244  6204 net.cpp:380] pool3 -> pool3
I1020 03:06:03.716380  6204 net.cpp:122] Setting up pool3
I1020 03:06:03.716490  6204 net.cpp:129] Top shape: 1 64 4 4 (1024)
I1020 03:06:03.716614  6204 net.cpp:137] Memory required for data: 319488
I1020 03:06:03.716713  6204 layer_factory.hpp:77] Creating layer ip1
I1020 03:06:03.716856  6204 net.cpp:84] Creating Layer ip1
I1020 03:06:03.716986  6204 net.cpp:406] ip1 <- pool3
I1020 03:06:03.717085  6204 net.cpp:380] ip1 -> ip1
I1020 03:06:03.718116  6204 net.cpp:122] Setting up ip1
I1020 03:06:03.718312  6204 net.cpp:129] Top shape: 1 64 (64)
I1020 03:06:03.718432  6204 net.cpp:137] Memory required for data: 319744
I1020 03:06:03.718600  6204 layer_factory.hpp:77] Creating layer ip2
I1020 03:06:03.718735  6204 net.cpp:84] Creating Layer ip2
I1020 03:06:03.718852  6204 net.cpp:406] ip2 <- ip1
I1020 03:06:03.718958  6204 net.cpp:380] ip2 -> ip2
I1020 03:06:03.719168  6204 net.cpp:122] Setting up ip2
I1020 03:06:03.719292  6204 net.cpp:129] Top shape: 1 10 (10)
I1020 03:06:03.719390  6204 net.cpp:137] Memory required for data: 319784
I1020 03:06:03.719517  6204 layer_factory.hpp:77] Creating layer prob
I1020 03:06:03.719652  6204 net.cpp:84] Creating Layer prob
I1020 03:06:03.719760  6204 net.cpp:406] prob <- ip2
I1020 03:06:03.719880  6204 net.cpp:380] prob -> prob
I1020 03:06:03.720048  6204 net.cpp:122] Setting up prob
I1020 03:06:03.720147  6204 net.cpp:129] Top shape: 1 10 (10)
I1020 03:06:03.720248  6204 net.cpp:137] Memory required for data: 319824
I1020 03:06:03.720362  6204 net.cpp:200] prob does not need backward computation.
I1020 03:06:03.720508  6204 net.cpp:200] ip2 does not need backward computation.
I1020 03:06:03.720598  6204 net.cpp:200] ip1 does not need backward computation.
I1020 03:06:03.720711  6204 net.cpp:200] pool3 does not need backward computation.
…
