…
I0923 18:09:10.039785  2794 net.cpp:294] The NetState phase (0) differed from the phase (1) specified by a rule in layer data
I0923 18:09:10.039950  2794 net.cpp:294] The NetState phase (0) differed from the phase (1) specified by a rule in layer accuracy
I0923 18:09:10.040036  2794 net.cpp:51] Initializing net from parameters: 
name: "AroRectNet"
state {
  phase: TRAIN
  level: 0
  stage: ""
}
layer {
  name: "data"
  type: "Data"
  top: "data"
  top: "label"
  include {
    phase: TRAIN
  }
  transform_param {
    mirror: false
    crop_size: 200
    mean_file: "mean.binaryproto"
  }
  data_param {
    source: "mylistdb"
    batch_size: 100
    backend: LMDB
  }
}
layer {
  name: "conv1"
  type: "Convolution"
  bottom: "data"
  top: "conv1"
  param {
    lr_mult: 1
  }
  param {
    lr_mult: 2
  }
  convolution_param {
    num_output: 40
    kernel_size: 7
    stride: 1
    weight_filler {
      type: "xavier"
    }
    bias_filler {
      type: "constant"
    }
  }
}
layer {
  name: "pool1"
  type: "Pooling"
  bottom: "conv1"
  top: "pool1"
  pooling_param {
    pool: MAX
    kernel_size: 2
    stride: 2
  }
}
layer {
  name: "conv2"
  type: "Convolution"
  bottom: "pool1"
  top: "conv2"
  param {
    lr_mult: 1
  }
  param {
    lr_mult: 2
  }
  convolution_param {
    num_output: 50
    kernel_size: 5
    stride: 1
    weight_filler {
      type: "xavier"
    }
    bias_filler {
      type: "constant"
    }
  }
}
layer {
  name: "pool2"
  type: "Pooling"
  bottom: "conv2"
  top: "pool2"
  pooling_param {
    pool: MAX
    kernel_size: 2
    stride: 2
  }
}
layer {
  name: "ip1"
  type: "InnerProduct"
  bottom: "pool2"
  top: "ip1"
  param {
    lr_mult: 1
  }
  param {
    lr_mult: 2
  }
  inner_product_param {
    num_output: 500
    weight_filler {
      type: "xavier"
    }
    bias_filler {
      type: "constant"
    }
  }
}
layer {
  name: "relu1"
  type: "ReLU"
  bottom: "ip1"
  top: "ip1"
}
layer {
  name: "ip2"
  type: "InnerProduct"
  bottom: "ip1"
  top: "ip2"
  param {
    lr_mult: 1
  }
  param {
    lr_mult: 2
  }
  inner_product_param {
    num_output: 2
    weight_filler {
      type: "xavier"
    }
    bias_filler {
      type: "constant"
    }
  }
}
layer {
  name: "loss"
  type: "SoftmaxWithLoss"
  bottom: "ip2"
  bottom: "label"
  top: "loss"
}
I0923 18:09:10.045116  2794 layer_factory.hpp:77] Creating layer data
I0923 18:09:10.045250  2794 db_lmdb.cpp:35] Opened lmdb mylistdb
I0923 18:09:10.045305  2794 net.cpp:84] Creating Layer data
I0923 18:09:10.045585  2794 net.cpp:380] data -> data
I0923 18:09:10.045637  2794 net.cpp:380] data -> label
I0923 18:09:10.045675  2794 data_transformer.cpp:25] Loading mean file from: mean.binaryproto
I0923 18:09:10.049996  2794 data_layer.cpp:45] output data size: 100,1,200,200
I0923 18:09:10.050145  2794 net.cpp:122] Setting up data
I0923 18:09:10.050608  2794 net.cpp:129] Top shape: 100 1 200 200 (4000000)
I0923 18:09:10.050644  2794 net.cpp:129] Top shape: 100 (100)
I0923 18:09:10.050671  2794 net.cpp:137] Memory required for data: 16000400
I0923 18:09:10.050703  2794 layer_factory.hpp:77] Creating layer conv1
I0923 18:09:10.050756  2794 net.cpp:84] Creating Layer conv1
I0923 18:09:10.050796  2794 net.cpp:406] conv1 <- data
I0923 18:09:10.050959  2794 net.cpp:380] conv1 -> conv1
I0923 18:09:10.051488  2794 net.cpp:122] Setting up conv1
I0923 18:09:10.051529  2794 net.cpp:129] Top shape: 100 40 194 194 (150544000)
I0923 18:09:10.051555  2794 net.cpp:137] Memory required for data: 618176400
I0923 18:09:10.051595  2794 layer_factory.hpp:77] Creating layer pool1
I0923 18:09:10.051627  2794 net.cpp:84] Creating Layer pool1
I0923 18:09:10.051676  2794 net.cpp:406] pool1 <- conv1
I0923 18:09:10.051704  2794 net.cpp:380] pool1 -> pool1
I0923 18:09:10.051746  2794 net.cpp:122] Setting up pool1
I0923 18:09:10.051777  2794 net.cpp:129] Top shape: 100 40 97 97 (37636000)
I0923 18:09:10.051802  2794 net.cpp:137] Memory required for data: 768720400
I0923 18:09:10.053097  2794 layer_factory.hpp:77] Creating layer conv2
I0923 18:09:10.053139  2794 net.cpp:84] Creating Layer conv2
I0923 18:09:10.053167  2794 net.cpp:406] conv2 <- pool1
I0923 18:09:10.053195  2794 net.cpp:380] conv2 -> conv2
I0923 18:09:10.053721  2794 net.cpp:122] Setting up conv2
I0923 18:09:10.053761  2794 net.cpp:129] Top shape: 100 50 93 93 (43245000)
I0923 18:09:10.053787  2794 net.cpp:137] Memory required for data: 941700400
I0923 18:09:10.054006  2794 layer_factory.hpp:77] Creating layer pool2
I0923 18:09:10.054042  2794 net.cpp:84] Creating Layer pool2
I0923 18:09:10.054069  2794 net.cpp:406] pool2 <- conv2
I0923 18:09:10.054096  2794 net.cpp:380] pool2 -> pool2
I0923 18:09:10.054127  2794 net.cpp:122] Setting up pool2
I0923 18:09:10.054157  2794 net.cpp:129] Top shape: 100 50 47 47 (11045000)
I0923 18:09:10.054183  2794 net.cpp:137] Memory required for data: 985880400
I0923 18:09:10.054208  2794 layer_factory.hpp:77] Creating layer ip1
I0923 18:09:10.054236  2794 net.cpp:84] Creating Layer ip1
I0923 18:09:10.054262  2794 net.cpp:406] ip1 <- pool2
I0923 18:09:10.054291  2794 net.cpp:380] ip1 -> ip1
I0923 18:09:10.860244  2794 net.cpp:122] Setting up ip1
I0923 18:09:10.860451  2794 net.cpp:129] Top shape: 100 500 (50000)
I0923 18:09:10.860486  2794 net.cpp:137] Memory required for data: 986080400
I0923 18:09:10.860522  2794 layer_factory.hpp:77] Creating layer relu1
I0923 18:09:10.860553  2794 net.cpp:84] Creating Layer relu1
I0923 18:09:10.860579  2794 net.cpp:406] relu1 <- ip1
I0923 18:09:10.860608  2794 net.cpp:367] relu1 -> ip1 (in-place)
I0923 18:09:10.860640  2794 net.cpp:122] Setting up relu1
I0923 18:09:10.860667  2794 net.cpp:129] Top shape: 100 500 (50000)
I0923 18:09:10.860692  2794 net.cpp:137] Memory required for data: 986280400
I0923 18:09:10.860716  2794 layer_factory.hpp:77] Creating layer ip2
I0923 18:09:10.860744  2794 net.cpp:84] Creating Layer ip2
I0923 18:09:10.860770  2794 net.cpp:406] ip2 <- ip1
I0923 18:09:10.860797  2794 net.cpp:380] ip2 -> ip2
I0923 18:09:10.861058  2794 net.cpp:122] Setting up ip2
I0923 18:09:10.861095  2794 net.cpp:129] Top shape: 100 2 (200)
I0923 18:09:10.861120  2794 net.cpp:137] Memory required for data: 986281200
I0923 18:09:10.861148  2794 layer_factory.hpp:77] Creating layer loss
I0923 18:09:10.861178  2794 net.cpp:84] Creating Layer loss
I0923 18:09:10.861204  2794 net.cpp:406] loss <- ip2
I0923 18:09:10.861230  2794 net.cpp:406] loss <- label
I0923 18:09:10.861258  2794 net.cpp:380] loss -> loss
I0923 18:09:10.861290  2794 layer_factory.hpp:77] Creating layer loss
…
I0923 18:09:10.862251  2794 solver.cpp:172] Creating test net (#0) specified by net file: train_val.prototxt
I0923 18:09:10.862319  2794 net.cpp:294] The NetState phase (1) differed from the phase (0) specified by a rule in layer data
I0923 18:09:10.862546  2794 net.cpp:51] Initializing net from parameters: 
name: "AroRectNet"
state {
  phase: TEST
}
layer {
  name: "data"
  type: "Data"
  top: "data"
  top: "label"
  include {
    phase: TEST
  }
  transform_param {
    mirror: false
    crop_size: 200
    mean_file: "mean.binaryproto"
  }
  data_param {
    source: "mytestlistdb"
    batch_size: 40
    backend: LMDB
  }
}
layer {
  name: "conv1"
  type: "Convolution"
  bottom: "data"
  top: "conv1"
  param {
    lr_mult: 1
  }
  param {
    lr_mult: 2
  }
  convolution_param {
    num_output: 40
    kernel_size: 7
    stride: 1
    weight_filler {
      type: "xavier"
    }
    bias_filler {
      type: "constant"
    }
  }
}
layer {
  name: "pool1"
  type: "Pooling"
  bottom: "conv1"
  top: "pool1"
  pooling_param {
    pool: MAX
    kernel_size: 2
    stride: 2
  }
}
layer {
  name: "conv2"
  type: "Convolution"
  bottom: "pool1"
  top: "conv2"
  param {
    lr_mult: 1
  }
  param {
    lr_mult: 2
  }
  convolution_param {
    num_output: 50
    kernel_size: 5
    stride: 1
    weight_filler {
      type: "xavier"
    }
    bias_filler {
      type: "constant"
    }
  }
}
layer {
  name: "pool2"
  type: "Pooling"
  bottom: "conv2"
  top: "pool2"
  pooling_param {
    pool: MAX
    kernel_size: 2
    stride: 2
  }
}
layer {
  name: "ip1"
  type: "InnerProduct"
  bottom: "pool2"
  top: "ip1"
  param {
    lr_mult: 1
  }
  param {
    lr_mult: 2
  }
  inner_product_param {
    num_output: 500
    weight_filler {
      type: "xavier"
    }
    bias_filler {
      type: "constant"
    }
  }
}
layer {
  name: "relu1"
  type: "ReLU"
  bottom: "ip1"
  top: "ip1"
}
layer {
  name: "ip2"
  type: "InnerProduct"
  bottom: "ip1"
  top: "ip2"
  param {
    lr_mult: 1
  }
  param {
    lr_mult: 2
  }
  inner_product_param {
    num_output: 2
    weight_filler {
      type: "xavier"
    }
    bias_filler {
      type: "constant"
    }
  }
}
layer {
  name: "accuracy"
  type: "Accuracy"
  bottom: "ip2"
  bottom: "label"
  top: "accuracy"
  include {
    phase: TEST
  }
}
layer {
  name: "loss"
  type: "SoftmaxWithLoss"
  bottom: "ip2"
  bottom: "label"
  top: "loss"
}
I0923 18:09:10.866647  2794 layer_factory.hpp:77] Creating layer data
I0923 18:09:10.866729  2794 db_lmdb.cpp:35] Opened lmdb mytestlistdb
I0923 18:09:10.866772  2794 net.cpp:84] Creating Layer data
I0923 18:09:10.866802  2794 net.cpp:380] data -> data
I0923 18:09:10.866961  2794 net.cpp:380] data -> label
I0923 18:09:10.867002  2794 data_transformer.cpp:25] Loading mean file from: mean.binaryproto
I0923 18:09:10.867321  2794 data_layer.cpp:45] output data size: 40,1,200,200
I0923 18:09:10.867558  2794 net.cpp:122] Setting up data
I0923 18:09:10.867591  2794 net.cpp:129] Top shape: 40 1 200 200 (1600000)
I0923 18:09:10.867619  2794 net.cpp:129] Top shape: 40 (40)
I0923 18:09:10.867645  2794 net.cpp:137] Memory required for data: 6400160
I0923 18:09:10.867669  2794 layer_factory.hpp:77] Creating layer label_data_1_split
I0923 18:09:10.867697  2794 net.cpp:84] Creating Layer label_data_1_split
I0923 18:09:10.867723  2794 net.cpp:406] label_data_1_split <- label
I0923 18:09:10.867751  2794 net.cpp:380] label_data_1_split -> label_data_1_split_0
I0923 18:09:10.867781  2794 net.cpp:380] label_data_1_split -> label_data_1_split_1
I0923 18:09:10.867811  2794 net.cpp:122] Setting up label_data_1_split
I0923 18:09:10.867969  2794 net.cpp:129] Top shape: 40 (40)
I0923 18:09:10.867997  2794 net.cpp:129] Top shape: 40 (40)
I0923 18:09:10.868022  2794 net.cpp:137] Memory required for data: 6400480
I0923 18:09:10.868047  2794 layer_factory.hpp:77] Creating layer conv1
I0923 18:09:10.868077  2794 net.cpp:84] Creating Layer conv1
I0923 18:09:10.868104  2794 net.cpp:406] conv1 <- data
I0923 18:09:10.868131  2794 net.cpp:380] conv1 -> conv1
I0923 18:09:10.868202  2794 net.cpp:122] Setting up conv1
I0923 18:09:10.868234  2794 net.cpp:129] Top shape: 40 40 194 194 (60217600)
I0923 18:09:10.868259  2794 net.cpp:137] Memory required for data: 247270880
I0923 18:09:10.868304  2794 layer_factory.hpp:77] Creating layer pool1
I0923 18:09:10.868456  2794 net.cpp:84] Creating Layer pool1
I0923 18:09:10.868489  2794 net.cpp:406] pool1 <- conv1
I0923 18:09:10.868517  2794 net.cpp:380] pool1 -> pool1
I0923 18:09:10.868549  2794 net.cpp:122] Setting up pool1
I0923 18:09:10.868578  2794 net.cpp:129] Top shape: 40 40 97 97 (15054400)
I0923 18:09:10.868603  2794 net.cpp:137] Memory required for data: 307488480
I0923 18:09:10.868628  2794 layer_factory.hpp:77] Creating layer conv2
I0923 18:09:10.868657  2794 net.cpp:84] Creating Layer conv2
I0923 18:09:10.868683  2794 net.cpp:406] conv2 <- pool1
I0923 18:09:10.868711  2794 net.cpp:380] conv2 -> conv2
I0923 18:09:10.869213  2794 net.cpp:122] Setting up conv2
I0923 18:09:10.869252  2794 net.cpp:129] Top shape: 40 50 93 93 (17298000)
I0923 18:09:10.869279  2794 net.cpp:137] Memory required for data: 376680480
I0923 18:09:10.869308  2794 layer_factory.hpp:77] Creating layer pool2
I0923 18:09:10.869572  2794 net.cpp:84] Creating Layer pool2
I0923 18:09:10.869747  2794 net.cpp:406] pool2 <- conv2
I0923 18:09:10.870060  2794 net.cpp:380] pool2 -> pool2
I0923 18:09:10.870239  2794 net.cpp:122] Setting up pool2
I0923 18:09:10.871541  2794 net.cpp:129] Top shape: 40 50 47 47 (4418000)
I0923 18:09:10.871551  2794 net.cpp:137] Memory required for data: 394352480
I0923 18:09:10.871556  2794 layer_factory.hpp:77] Creating layer ip1
I0923 18:09:10.871563  2794 net.cpp:84] Creating Layer ip1
I0923 18:09:10.871568  2794 net.cpp:406] ip1 <- pool2
I0923 18:09:10.871578  2794 net.cpp:380] ip1 -> ip1
I0923 18:09:11.590657  2794 net.cpp:122] Setting up ip1
I0923 18:09:11.590747  2794 net.cpp:129] Top shape: 40 500 (20000)
I0923 18:09:11.590775  2794 net.cpp:137] Memory required for data: 394432480
I0923 18:09:11.591017  2794 layer_factory.hpp:77] Creating layer relu1
I0923 18:09:11.591051  2794 net.cpp:84] Creating Layer relu1
I0923 18:09:11.591078  2794 net.cpp:406] relu1 <- ip1
I0923 18:09:11.591106  2794 net.cpp:367] relu1 -> ip1 (in-place)
I0923 18:09:11.591140  2794 net.cpp:122] Setting up relu1
I0923 18:09:11.591167  2794 net.cpp:129] Top shape: 40 500 (20000)
I0923 18:09:11.591192  2794 net.cpp:137] Memory required for data: 394512480
I0923 18:09:11.591217  2794 layer_factory.hpp:77] Creating layer ip2
I0923 18:09:11.591248  2794 net.cpp:84] Creating Layer ip2
I0923 18:09:11.591274  2794 net.cpp:406] ip2 <- ip1
I0923 18:09:11.591531  2794 net.cpp:380] ip2 -> ip2
I0923 18:09:11.591578  2794 net.cpp:122] Setting up ip2
I0923 18:09:11.591609  2794 net.cpp:129] Top shape: 40 2 (80)
I0923 18:09:11.591634  2794 net.cpp:137] Memory required for data: 394512800
I0923 18:09:11.591661  2794 layer_factory.hpp:77] Creating layer ip2_ip2_0_split
I0923 18:09:11.591691  2794 net.cpp:84] Creating Layer ip2_ip2_0_split
I0923 18:09:11.591717  2794 net.cpp:406] ip2_ip2_0_split <- ip2
I0923 18:09:11.591743  2794 net.cpp:380] ip2_ip2_0_split -> ip2_ip2_0_split_0
I0923 18:09:11.591771  2794 net.cpp:380] ip2_ip2_0_split -> ip2_ip2_0_split_1
I0923 18:09:11.592063  2794 net.cpp:122] Setting up ip2_ip2_0_split
I0923 18:09:11.592095  2794 net.cpp:129] Top shape: 40 2 (80)
I0923 18:09:11.592121  2794 net.cpp:129] Top shape: 40 2 (80)
I0923 18:09:11.592145  2794 net.cpp:137] Memory required for data: 394513440
I0923 18:09:11.592170  2794 layer_factory.hpp:77] Creating layer accuracy
I0923 18:09:11.592200  2794 net.cpp:84] Creating Layer accuracy
I0923 18:09:11.592226  2794 net.cpp:406] accuracy <- ip2_ip2_0_split_0
I0923 18:09:11.592252  2794 net.cpp:406] accuracy <- label_data_1_split_0
I0923 18:09:11.592281  2794 net.cpp:380] accuracy -> accuracy
…
