…
I1024 17:09:28.539577  2239 net.cpp:294] The NetState phase (0) differed from the phase (1) specified by a rule in layer data
I1024 17:09:28.539644  2239 net.cpp:294] The NetState phase (0) differed from the phase (1) specified by a rule in layer accuracy
I1024 17:09:28.539723  2239 net.cpp:51] Initializing net from parameters: 
name: "Net"
state {
  phase: TRAIN
  level: 0
  stage: ""
}
layer {
  name: "data"
  type: "Data"
  top: "data"
  top: "label"
  include {
    phase: TRAIN
  }
  transform_param {
    mirror: false
    crop_size: 300
    mean_file: "mean.binaryproto"
  }
  data_param {
    source: "mylistdb"
    batch_size: 100
    backend: LMDB
  }
}
layer {
  name: "conv1"
  type: "Convolution"
  bottom: "data"
  top: "conv1"
  param {
    lr_mult: 1
  }
  param {
    lr_mult: 2
  }
  convolution_param {
    num_output: 50
    kernel_size: 11
    stride: 2
    weight_filler {
      type: "xavier"
    }
    bias_filler {
      type: "constant"
    }
  }
}
layer {
  name: "relu1"
  type: "ReLU"
  bottom: "conv1"
  top: "conv1"
}
layer {
  name: "pool1"
  type: "Pooling"
  bottom: "conv1"
  top: "pool1"
  pooling_param {
    pool: MAX
    kernel_size: 2
    stride: 2
  }
}
layer {
  name: "conv2"
  type: "Convolution"
  bottom: "pool1"
  top: "conv2"
  param {
    lr_mult: 1
  }
  param {
    lr_mult: 2
  }
  convolution_param {
    num_output: 50
    kernel_size: 5
    stride: 2
    weight_filler {
      type: "xavier"
    }
    bias_filler {
      type: "constant"
    }
  }
}
layer {
  name: "relu2"
  type: "ReLU"
  bottom: "conv2"
  top: "conv2"
}
layer {
  name: "pool2"
  type: "Pooling"
  bottom: "conv2"
  top: "pool2"
  pooling_param {
    pool: MAX
    kernel_size: 2
    stride: 2
  }
}
layer {
  name: "conv3"
  type: "Convolution"
  bottom: "pool2"
  top: "conv3"
  param {
    lr_mult: 1
  }
  param {
    lr_mult: 2
  }
  convolution_param {
    num_output: 50
    kernel_size: 5
    stride: 2
    weight_filler {
      type: "xavier"
    }
    bias_filler {
      type: "constant"
    }
  }
}
layer {
  name: "pool3"
  type: "Pooling"
  bottom: "conv3"
  top: "pool3"
  pooling_param {
    pool: MAX
    kernel_size: 2
    stride: 2
  }
}
layer {
  name: "ip1"
  type: "InnerProduct"
  bottom: "pool3"
  top: "ip1"
  param {
    lr_mult: 1
  }
  param {
    lr_mult: 2
  }
  inner_product_param {
    num_output: 500
    weight_filler {
      type: "xavier"
    }
    bias_filler {
      type: "constant"
    }
  }
}
layer {
  name: "relu1"
  type: "ReLU"
  bottom: "ip1"
  top: "ip1"
}
layer {
  name: "ip2"
  type: "InnerProduct"
  bottom: "ip1"
  top: "ip2"
  param {
    lr_mult: 1
  }
  param {
    lr_mult: 2
  }
  inner_product_param {
    num_output: 2
    weight_filler {
      type: "xavier"
    }
    bias_filler {
      type: "constant"
    }
  }
}
layer {
  name: "loss"
  type: "SoftmaxWithLoss"
  bottom: "ip2"
  bottom: "label"
  top: "loss"
}
I1024 17:09:28.539803  2239 layer_factory.hpp:77] Creating layer data
I1024 17:09:28.539896  2239 db_lmdb.cpp:35] Opened lmdb mylistdb
I1024 17:09:28.539963  2239 net.cpp:84] Creating Layer data
I1024 17:09:28.539970  2239 net.cpp:380] data -> data
I1024 17:09:28.539986  2239 net.cpp:380] data -> label
I1024 17:09:28.539995  2239 data_transformer.cpp:25] Loading mean file from: mean.binaryproto
I1024 17:09:28.541263  2239 data_layer.cpp:45] output data size: 100,1,300,300
I1024 17:09:28.541451  2239 net.cpp:122] Setting up data
I1024 17:09:28.541463  2239 net.cpp:129] Top shape: 100 1 300 300 (9000000)
I1024 17:09:28.541467  2239 net.cpp:129] Top shape: 100 (100)
I1024 17:09:28.541470  2239 net.cpp:137] Memory required for data: 36000400
I1024 17:09:28.541772  2239 layer_factory.hpp:77] Creating layer conv1
I1024 17:09:28.541790  2239 net.cpp:84] Creating Layer conv1
I1024 17:09:28.541795  2239 net.cpp:406] conv1 <- data
I1024 17:09:28.541805  2239 net.cpp:380] conv1 -> conv1
I1024 17:09:28.541878  2239 net.cpp:122] Setting up conv1
I1024 17:09:28.541884  2239 net.cpp:129] Top shape: 100 50 145 145 (105125000)
I1024 17:09:28.541887  2239 net.cpp:137] Memory required for data: 456500400
I1024 17:09:28.541903  2239 layer_factory.hpp:77] Creating layer relu1
I1024 17:09:28.541908  2239 net.cpp:84] Creating Layer relu1
I1024 17:09:28.541911  2239 net.cpp:406] relu1 <- conv1
I1024 17:09:28.541915  2239 net.cpp:367] relu1 -> conv1 (in-place)
I1024 17:09:28.541920  2239 net.cpp:122] Setting up relu1
I1024 17:09:28.541924  2239 net.cpp:129] Top shape: 100 50 145 145 (105125000)
I1024 17:09:28.541926  2239 net.cpp:137] Memory required for data: 877000400
I1024 17:09:28.541929  2239 layer_factory.hpp:77] Creating layer pool1
I1024 17:09:28.541934  2239 net.cpp:84] Creating Layer pool1
I1024 17:09:28.541936  2239 net.cpp:406] pool1 <- conv1
I1024 17:09:28.541939  2239 net.cpp:380] pool1 -> pool1
I1024 17:09:28.541950  2239 net.cpp:122] Setting up pool1
I1024 17:09:28.541954  2239 net.cpp:129] Top shape: 100 50 73 73 (26645000)
I1024 17:09:28.541956  2239 net.cpp:137] Memory required for data: 983580400
I1024 17:09:28.541959  2239 layer_factory.hpp:77] Creating layer conv2
I1024 17:09:28.541965  2239 net.cpp:84] Creating Layer conv2
I1024 17:09:28.541966  2239 net.cpp:406] conv2 <- pool1
I1024 17:09:28.541970  2239 net.cpp:380] conv2 -> conv2
I1024 17:09:28.542747  2239 net.cpp:122] Setting up conv2
I1024 17:09:28.542757  2239 net.cpp:129] Top shape: 100 50 35 35 (6125000)
I1024 17:09:28.542759  2239 net.cpp:137] Memory required for data: 1008080400
I1024 17:09:28.542765  2239 layer_factory.hpp:77] Creating layer relu2
I1024 17:09:28.542769  2239 net.cpp:84] Creating Layer relu2
I1024 17:09:28.542773  2239 net.cpp:406] relu2 <- conv2
I1024 17:09:28.542776  2239 net.cpp:367] relu2 -> conv2 (in-place)
I1024 17:09:28.542780  2239 net.cpp:122] Setting up relu2
I1024 17:09:28.542784  2239 net.cpp:129] Top shape: 100 50 35 35 (6125000)
I1024 17:09:28.542786  2239 net.cpp:137] Memory required for data: 1032580400
I1024 17:09:28.542788  2239 layer_factory.hpp:77] Creating layer pool2
I1024 17:09:28.542793  2239 net.cpp:84] Creating Layer pool2
I1024 17:09:28.542794  2239 net.cpp:406] pool2 <- conv2
I1024 17:09:28.542798  2239 net.cpp:380] pool2 -> pool2
I1024 17:09:28.542804  2239 net.cpp:122] Setting up pool2
I1024 17:09:28.542807  2239 net.cpp:129] Top shape: 100 50 18 18 (1620000)
I1024 17:09:28.542809  2239 net.cpp:137] Memory required for data: 1039060400
I1024 17:09:28.542811  2239 layer_factory.hpp:77] Creating layer conv3
I1024 17:09:28.542816  2239 net.cpp:84] Creating Layer conv3
I1024 17:09:28.542819  2239 net.cpp:406] conv3 <- pool2
I1024 17:09:28.542824  2239 net.cpp:380] conv3 -> conv3
I1024 17:09:28.544066  2239 net.cpp:122] Setting up conv3
I1024 17:09:28.544080  2239 net.cpp:129] Top shape: 100 50 7 7 (245000)
I1024 17:09:28.544083  2239 net.cpp:137] Memory required for data: 1040040400
I1024 17:09:28.544092  2239 layer_factory.hpp:77] Creating layer pool3
I1024 17:09:28.544100  2239 net.cpp:84] Creating Layer pool3
I1024 17:09:28.544102  2239 net.cpp:406] pool3 <- conv3
I1024 17:09:28.544107  2239 net.cpp:380] pool3 -> pool3
I1024 17:09:28.544114  2239 net.cpp:122] Setting up pool3
I1024 17:09:28.544118  2239 net.cpp:129] Top shape: 100 50 4 4 (80000)
I1024 17:09:28.544291  2239 net.cpp:137] Memory required for data: 1040360400
I1024 17:09:28.544296  2239 layer_factory.hpp:77] Creating layer ip1
I1024 17:09:28.544303  2239 net.cpp:84] Creating Layer ip1
I1024 17:09:28.544306  2239 net.cpp:406] ip1 <- pool3
I1024 17:09:28.544311  2239 net.cpp:380] ip1 -> ip1
I1024 17:09:28.548014  2239 net.cpp:122] Setting up ip1
I1024 17:09:28.548080  2239 net.cpp:129] Top shape: 100 500 (50000)
I1024 17:09:28.548094  2239 net.cpp:137] Memory required for data: 1040560400
I1024 17:09:28.548121  2239 layer_factory.hpp:77] Creating layer relu1
I1024 17:09:28.548393  2239 net.cpp:84] Creating Layer relu1
I1024 17:09:28.548806  2239 net.cpp:406] relu1 <- ip1
I1024 17:09:28.548815  2239 net.cpp:367] relu1 -> ip1 (in-place)
I1024 17:09:28.548821  2239 net.cpp:122] Setting up relu1
I1024 17:09:28.548825  2239 net.cpp:129] Top shape: 100 500 (50000)
I1024 17:09:28.548827  2239 net.cpp:137] Memory required for data: 1040760400
I1024 17:09:28.548830  2239 layer_factory.hpp:77] Creating layer ip2
I1024 17:09:28.548835  2239 net.cpp:84] Creating Layer ip2
I1024 17:09:28.548837  2239 net.cpp:406] ip2 <- ip1
I1024 17:09:28.548842  2239 net.cpp:380] ip2 -> ip2
I1024 17:09:28.548861  2239 net.cpp:122] Setting up ip2
I1024 17:09:28.548863  2239 net.cpp:129] Top shape: 100 2 (200)
I1024 17:09:28.548866  2239 net.cpp:137] Memory required for data: 1040761200
I1024 17:09:28.548874  2239 layer_factory.hpp:77] Creating layer loss
I1024 17:09:28.548878  2239 net.cpp:84] Creating Layer loss
I1024 17:09:28.548883  2239 net.cpp:406] loss <- ip2
I1024 17:09:28.548887  2239 net.cpp:406] loss <- label
I1024 17:09:28.548892  2239 net.cpp:380] loss -> loss
I1024 17:09:28.548898  2239 layer_factory.hpp:77] Creating layer loss
…
I1024 17:09:28.549340  2239 solver.cpp:172] Creating test net (#0) specified by net file: train_val.prototxt
I1024 17:09:28.549403  2239 net.cpp:294] The NetState phase (1) differed from the phase (0) specified by a rule in layer data
I1024 17:09:28.549811  2239 net.cpp:51] Initializing net from parameters: 
name: "Net"
state {
  phase: TEST
}
layer {
  name: "data"
  type: "Data"
  top: "data"
  top: "label"
  include {
    phase: TEST
  }
  transform_param {
    mirror: false
    crop_size: 300
    mean_file: "mean.binaryproto"
  }
  data_param {
    source: "mytestlistdb"
    batch_size: 40
    backend: LMDB
  }
}
layer {
  name: "conv1"
  type: "Convolution"
  bottom: "data"
  top: "conv1"
  param {
    lr_mult: 1
  }
  param {
    lr_mult: 2
  }
  convolution_param {
    num_output: 50
    kernel_size: 11
    stride: 2
    weight_filler {
      type: "xavier"
    }
    bias_filler {
      type: "constant"
    }
  }
}
layer {
  name: "relu1"
  type: "ReLU"
  bottom: "conv1"
  top: "conv1"
}
layer {
  name: "pool1"
  type: "Pooling"
  bottom: "conv1"
  top: "pool1"
  pooling_param {
    pool: MAX
    kernel_size: 2
    stride: 2
  }
}
layer {
  name: "conv2"
  type: "Convolution"
  bottom: "pool1"
  top: "conv2"
  param {
    lr_mult: 1
  }
  param {
    lr_mult: 2
  }
  convolution_param {
    num_output: 50
    kernel_size: 5
    stride: 2
    weight_filler {
      type: "xavier"
    }
    bias_filler {
      type: "constant"
    }
  }
}
layer {
  name: "relu2"
  type: "ReLU"
  bottom: "conv2"
  top: "conv2"
}
layer {
  name: "pool2"
  type: "Pooling"
  bottom: "conv2"
  top: "pool2"
  pooling_param {
    pool: MAX
    kernel_size: 2
    stride: 2
  }
}
layer {
  name: "conv3"
  type: "Convolution"
  bottom: "pool2"
  top: "conv3"
  param {
    lr_mult: 1
  }
  param {
    lr_mult: 2
  }
  convolution_param {
    num_output: 50
    kernel_size: 5
    stride: 2
    weight_filler {
      type: "xavier"
    }
    bias_filler {
      type: "constant"
    }
  }
}
layer {
  name: "pool3"
  type: "Pooling"
  bottom: "conv3"
  top: "pool3"
  pooling_param {
    pool: MAX
    kernel_size: 2
    stride: 2
  }
}
layer {
  name: "ip1"
  type: "InnerProduct"
  bottom: "pool3"
  top: "ip1"
  param {
    lr_mult: 1
  }
  param {
    lr_mult: 2
  }
  inner_product_param {
    num_output: 500
    weight_filler {
      type: "xavier"
    }
    bias_filler {
      type: "constant"
    }
  }
}
layer {
  name: "relu1"
  type: "ReLU"
  bottom: "ip1"
  top: "ip1"
}
layer {
  name: "ip2"
  type: "InnerProduct"
  bottom: "ip1"
  top: "ip2"
  param {
    lr_mult: 1
  }
  param {
    lr_mult: 2
  }
  inner_product_param {
    num_output: 2
    weight_filler {
      type: "xavier"
    }
    bias_filler {
      type: "constant"
    }
  }
}
layer {
  name: "accuracy"
  type: "Accuracy"
  bottom: "ip2"
  bottom: "label"
  top: "accuracy"
  include {
    phase: TEST
  }
}
layer {
  name: "loss"
  type: "SoftmaxWithLoss"
  bottom: "ip2"
  bottom: "label"
  top: "loss"
}
I1024 17:09:28.549957  2239 layer_factory.hpp:77] Creating layer data
I1024 17:09:28.550005  2239 db_lmdb.cpp:35] Opened lmdb mytestlistdb
I1024 17:09:28.550349  2239 net.cpp:84] Creating Layer data
I1024 17:09:28.550396  2239 net.cpp:380] data -> data
I1024 17:09:28.550403  2239 net.cpp:380] data -> label
I1024 17:09:28.550410  2239 data_transformer.cpp:25] Loading mean file from: mean.binaryproto
I1024 17:09:28.551107  2239 data_layer.cpp:45] output data size: 40,1,300,300
I1024 17:09:28.551393  2239 net.cpp:122] Setting up data
I1024 17:09:28.551699  2239 net.cpp:129] Top shape: 40 1 300 300 (3600000)
I1024 17:09:28.551708  2239 net.cpp:129] Top shape: 40 (40)
I1024 17:09:28.551713  2239 net.cpp:137] Memory required for data: 14400160
I1024 17:09:28.551719  2239 layer_factory.hpp:77] Creating layer label_data_1_split
I1024 17:09:28.551729  2239 net.cpp:84] Creating Layer label_data_1_split
I1024 17:09:28.551734  2239 net.cpp:406] label_data_1_split <- label
I1024 17:09:28.551743  2239 net.cpp:380] label_data_1_split -> label_data_1_split_0
I1024 17:09:28.551751  2239 net.cpp:380] label_data_1_split -> label_data_1_split_1
I1024 17:09:28.551760  2239 net.cpp:122] Setting up label_data_1_split
I1024 17:09:28.551766  2239 net.cpp:129] Top shape: 40 (40)
I1024 17:09:28.551771  2239 net.cpp:129] Top shape: 40 (40)
I1024 17:09:28.551776  2239 net.cpp:137] Memory required for data: 14400480
I1024 17:09:28.551781  2239 layer_factory.hpp:77] Creating layer conv1
I1024 17:09:28.551791  2239 net.cpp:84] Creating Layer conv1
I1024 17:09:28.551796  2239 net.cpp:406] conv1 <- data
I1024 17:09:28.551803  2239 net.cpp:380] conv1 -> conv1
I1024 17:09:28.552009  2239 net.cpp:122] Setting up conv1
I1024 17:09:28.552058  2239 net.cpp:129] Top shape: 40 50 145 145 (42050000)
I1024 17:09:28.552064  2239 net.cpp:137] Memory required for data: 182600480
I1024 17:09:28.552075  2239 layer_factory.hpp:77] Creating layer relu1
I1024 17:09:28.552083  2239 net.cpp:84] Creating Layer relu1
I1024 17:09:28.552088  2239 net.cpp:406] relu1 <- conv1
I1024 17:09:28.552093  2239 net.cpp:367] relu1 -> conv1 (in-place)
I1024 17:09:28.552101  2239 net.cpp:122] Setting up relu1
I1024 17:09:28.552108  2239 net.cpp:129] Top shape: 40 50 145 145 (42050000)
I1024 17:09:28.552111  2239 net.cpp:137] Memory required for data: 350800480
I1024 17:09:28.552116  2239 layer_factory.hpp:77] Creating layer pool1
I1024 17:09:28.552124  2239 net.cpp:84] Creating Layer pool1
I1024 17:09:28.552296  2239 net.cpp:406] pool1 <- conv1
I1024 17:09:28.552304  2239 net.cpp:380] pool1 -> pool1
I1024 17:09:28.552327  2239 net.cpp:122] Setting up pool1
I1024 17:09:28.552335  2239 net.cpp:129] Top shape: 40 50 73 73 (10658000)
I1024 17:09:28.552340  2239 net.cpp:137] Memory required for data: 393432480
I1024 17:09:28.552345  2239 layer_factory.hpp:77] Creating layer conv2
I1024 17:09:28.552353  2239 net.cpp:84] Creating Layer conv2
I1024 17:09:28.552358  2239 net.cpp:406] conv2 <- pool1
I1024 17:09:28.552364  2239 net.cpp:380] conv2 -> conv2
I1024 17:09:28.552974  2239 net.cpp:122] Setting up conv2
I1024 17:09:28.553028  2239 net.cpp:129] Top shape: 40 50 35 35 (2450000)
I1024 17:09:28.553033  2239 net.cpp:137] Memory required for data: 403232480
I1024 17:09:28.553043  2239 layer_factory.hpp:77] Creating layer relu2
I1024 17:09:28.553050  2239 net.cpp:84] Creating Layer relu2
I1024 17:09:28.553056  2239 net.cpp:406] relu2 <- conv2
I1024 17:09:28.553062  2239 net.cpp:367] relu2 -> conv2 (in-place)
I1024 17:09:28.553069  2239 net.cpp:122] Setting up relu2
I1024 17:09:28.553074  2239 net.cpp:129] Top shape: 40 50 35 35 (2450000)
I1024 17:09:28.553079  2239 net.cpp:137] Memory required for data: 413032480
I1024 17:09:28.553084  2239 layer_factory.hpp:77] Creating layer pool2
I1024 17:09:28.553091  2239 net.cpp:84] Creating Layer pool2
I1024 17:09:28.553095  2239 net.cpp:406] pool2 <- conv2
I1024 17:09:28.553100  2239 net.cpp:380] pool2 -> pool2
I1024 17:09:28.553109  2239 net.cpp:122] Setting up pool2
I1024 17:09:28.553115  2239 net.cpp:129] Top shape: 40 50 18 18 (648000)
I1024 17:09:28.553120  2239 net.cpp:137] Memory required for data: 415624480
I1024 17:09:28.553124  2239 layer_factory.hpp:77] Creating layer conv3
I1024 17:09:28.553263  2239 net.cpp:84] Creating Layer conv3
I1024 17:09:28.553269  2239 net.cpp:406] conv3 <- pool2
I1024 17:09:28.553277  2239 net.cpp:380] conv3 -> conv3
I1024 17:09:28.553934  2239 net.cpp:122] Setting up conv3
I1024 17:09:28.553949  2239 net.cpp:129] Top shape: 40 50 7 7 (98000)
I1024 17:09:28.553956  2239 net.cpp:137] Memory required for data: 416016480
I1024 17:09:28.553966  2239 layer_factory.hpp:77] Creating layer pool3
I1024 17:09:28.553974  2239 net.cpp:84] Creating Layer pool3
I1024 17:09:28.553979  2239 net.cpp:406] pool3 <- conv3
I1024 17:09:28.553987  2239 net.cpp:380] pool3 -> pool3
I1024 17:09:28.553994  2239 net.cpp:122] Setting up pool3
I1024 17:09:28.554002  2239 net.cpp:129] Top shape: 40 50 4 4 (32000)
I1024 17:09:28.554006  2239 net.cpp:137] Memory required for data: 416144480
I1024 17:09:28.554011  2239 layer_factory.hpp:77] Creating layer ip1
I1024 17:09:28.554018  2239 net.cpp:84] Creating Layer ip1
I1024 17:09:28.554023  2239 net.cpp:406] ip1 <- pool3
I1024 17:09:28.554030  2239 net.cpp:380] ip1 -> ip1
I1024 17:09:28.557113  2239 net.cpp:122] Setting up ip1
I1024 17:09:28.557271  2239 net.cpp:129] Top shape: 40 500 (20000)
I1024 17:09:28.557277  2239 net.cpp:137] Memory required for data: 416224480
I1024 17:09:28.557288  2239 layer_factory.hpp:77] Creating layer relu1
I1024 17:09:28.557296  2239 net.cpp:84] Creating Layer relu1
I1024 17:09:28.557302  2239 net.cpp:406] relu1 <- ip1
I1024 17:09:28.557312  2239 net.cpp:367] relu1 -> ip1 (in-place)
I1024 17:09:28.557322  2239 net.cpp:122] Setting up relu1
I1024 17:09:28.557327  2239 net.cpp:129] Top shape: 40 500 (20000)
I1024 17:09:28.557376  2239 net.cpp:137] Memory required for data: 416304480
I1024 17:09:28.557381  2239 layer_factory.hpp:77] Creating layer ip2
I1024 17:09:28.557389  2239 net.cpp:84] Creating Layer ip2
I1024 17:09:28.557394  2239 net.cpp:406] ip2 <- ip1
I1024 17:09:28.557402  2239 net.cpp:380] ip2 -> ip2
I1024 17:09:28.557422  2239 net.cpp:122] Setting up ip2
I1024 17:09:28.557430  2239 net.cpp:129] Top shape: 40 2 (80)
I1024 17:09:28.557435  2239 net.cpp:137] Memory required for data: 416304800
I1024 17:09:28.557445  2239 layer_factory.hpp:77] Creating layer ip2_ip2_0_split
I1024 17:09:28.557451  2239 net.cpp:84] Creating Layer ip2_ip2_0_split
I1024 17:09:28.557456  2239 net.cpp:406] ip2_ip2_0_split <- ip2
I1024 17:09:28.557463  2239 net.cpp:380] ip2_ip2_0_split -> ip2_ip2_0_split_0
I1024 17:09:28.557489  2239 net.cpp:380] ip2_ip2_0_split -> ip2_ip2_0_split_1
I1024 17:09:28.557498  2239 net.cpp:122] Setting up ip2_ip2_0_split
I1024 17:09:28.557504  2239 net.cpp:129] Top shape: 40 2 (80)
I1024 17:09:28.557509  2239 net.cpp:129] Top shape: 40 2 (80)
I1024 17:09:28.557514  2239 net.cpp:137] Memory required for data: 416305440
I1024 17:09:28.557519  2239 layer_factory.hpp:77] Creating layer accuracy
I1024 17:09:28.557528  2239 net.cpp:84] Creating Layer accuracy
I1024 17:09:28.557533  2239 net.cpp:406] accuracy <- ip2_ip2_0_split_0
I1024 17:09:28.557539  2239 net.cpp:406] accuracy <- label_data_1_split_0
I1024 17:09:28.557545  2239 net.cpp:380] accuracy -> accuracy
…
