pi@raspberrypi:~/workspace/caffe/project/arboles_mejorado $ ./test.sh
I1027 21:02:57.807238  1557 caffe.cpp:352] Use CPU.
I1027 21:02:57.826650  1557 net.cpp:51] Initializing net from parameters:
name: "Net"
state {
  phase: TRAIN
  level: 0
  stage: ""
}
layer {
  name: "data"
  type: "Input"
  top: "data"
  input_param {
    shape {
      dim: 1
      dim: 1
      dim: 300
      dim: 300
    }
  }
}
layer {
  name: "conv1"
  type: "Convolution"
  bottom: "data"
  top: "conv1"
  convolution_param {
    num_output: 50
    kernel_size: 9
    stride: 4
  }
}
layer {
  name: "relu1"
  type: "ReLU"
  bottom: "conv1"
  top: "conv1"
}
layer {
  name: "pool1"
  type: "Pooling"
  bottom: "conv1"
  top: "pool1"
  pooling_param {
    pool: MAX
    kernel_size: 2
    stride: 2
  }
}
layer {
  name: "conv2"
  type: "Convolution"
  bottom: "pool1"
  top: "conv2"
  convolution_param {
    num_output: 50
    kernel_size: 5
    stride: 2
  }
}
layer {
  name: "relu2"
  type: "ReLU"
  bottom: "conv2"
  top: "conv2"
}
layer {
  name: "pool2"
  type: "Pooling"
  bottom: "conv2"
  top: "pool2"
  pooling_param {
    pool: MAX
    kernel_size: 2
    stride: 2
  }
}
layer {
  name: "conv3"
  type: "Convolution"
  bottom: "pool2"
  top: "conv3"
  convolution_param {
    num_output: 50
    kernel_size: 5
    stride: 2
  }
}
layer {
  name: "pool3"
  type: "Pooling"
  bottom: "conv3"
  top: "pool3"
  pooling_param {
    pool: MAX
    kernel_size: 2
    stride: 2
  }
}
layer {
  name: "ip1"
  type: "InnerProduct"
  bottom: "pool3"
  top: "ip1"
  inner_product_param {
    num_output: 500
  }
}
layer {
  name: "relu1"
  type: "ReLU"
  bottom: "ip1"
  top: "ip1"
}
layer {
  name: "ip2"
  type: "InnerProduct"
  bottom: "ip1"
  top: "ip2"
  inner_product_param {
    num_output: 2
  }
}
layer {
  name: "prob"
  type: "Softmax"
  bottom: "ip2"
  top: "prob"
}
I1027 21:02:57.829522  1557 layer_factory.hpp:77] Creating layer data
I1027 21:02:57.829643  1557 net.cpp:84] Creating Layer data
I1027 21:02:57.829704  1557 net.cpp:380] data -> data
I1027 21:02:57.829869  1557 net.cpp:122] Setting up data
I1027 21:02:57.829918  1557 net.cpp:129] Top shape: 1 1 300 300 (90000)
I1027 21:02:57.830024  1557 net.cpp:137] Memory required for data: 360000
I1027 21:02:57.830086  1557 layer_factory.hpp:77] Creating layer conv1
I1027 21:02:57.830162  1557 net.cpp:84] Creating Layer conv1
I1027 21:02:57.830212  1557 net.cpp:406] conv1 <- data
I1027 21:02:57.830274  1557 net.cpp:380] conv1 -> conv1
I1027 21:02:57.830570  1557 net.cpp:122] Setting up conv1
I1027 21:02:57.830628  1557 net.cpp:129] Top shape: 1 50 73 73 (266450)
I1027 21:02:57.830687  1557 net.cpp:137] Memory required for data: 1425800
I1027 21:02:57.830821  1557 layer_factory.hpp:77] Creating layer relu1
I1027 21:02:57.830888  1557 net.cpp:84] Creating Layer relu1
I1027 21:02:57.830935  1557 net.cpp:406] relu1 <- conv1
I1027 21:02:57.830984  1557 net.cpp:367] relu1 -> conv1 (in-place)
I1027 21:02:57.831041  1557 net.cpp:122] Setting up relu1
I1027 21:02:57.831082  1557 net.cpp:129] Top shape: 1 50 73 73 (266450)
I1027 21:02:57.831135  1557 net.cpp:137] Memory required for data: 2491600
I1027 21:02:57.831177  1557 layer_factory.hpp:77] Creating layer pool1
I1027 21:02:57.831228  1557 net.cpp:84] Creating Layer pool1
I1027 21:02:57.831269  1557 net.cpp:406] pool1 <- conv1
I1027 21:02:57.831320  1557 net.cpp:380] pool1 -> pool1
I1027 21:02:57.831418  1557 net.cpp:122] Setting up pool1
I1027 21:02:57.831465  1557 net.cpp:129] Top shape: 1 50 37 37 (68450)
I1027 21:02:57.831526  1557 net.cpp:137] Memory required for data: 2765400
I1027 21:02:57.831567  1557 layer_factory.hpp:77] Creating layer conv2
I1027 21:02:57.831630  1557 net.cpp:84] Creating Layer conv2
I1027 21:02:57.831672  1557 net.cpp:406] conv2 <- pool1
I1027 21:02:57.831723  1557 net.cpp:380] conv2 -> conv2
I1027 21:02:57.832219  1557 net.cpp:122] Setting up conv2
I1027 21:02:57.832293  1557 net.cpp:129] Top shape: 1 50 17 17 (14450)
I1027 21:02:57.832355  1557 net.cpp:137] Memory required for data: 2823200
I1027 21:02:57.832432  1557 layer_factory.hpp:77] Creating layer relu2
I1027 21:02:57.832492  1557 net.cpp:84] Creating Layer relu2
I1027 21:02:57.832540  1557 net.cpp:406] relu2 <- conv2
I1027 21:02:57.832687  1557 net.cpp:367] relu2 -> conv2 (in-place)
I1027 21:02:57.832749  1557 net.cpp:122] Setting up relu2
I1027 21:02:57.832792  1557 net.cpp:129] Top shape: 1 50 17 17 (14450)
I1027 21:02:57.832847  1557 net.cpp:137] Memory required for data: 2881000
I1027 21:02:57.832890  1557 layer_factory.hpp:77] Creating layer pool2
I1027 21:02:57.832947  1557 net.cpp:84] Creating Layer pool2
I1027 21:02:57.832972  1557 net.cpp:406] pool2 <- conv2
I1027 21:02:57.833003  1557 net.cpp:380] pool2 -> pool2
I1027 21:02:57.833055  1557 net.cpp:122] Setting up pool2
I1027 21:02:57.833081  1557 net.cpp:129] Top shape: 1 50 9 9 (4050)
I1027 21:02:57.833113  1557 net.cpp:137] Memory required for data: 2897200
I1027 21:02:57.833137  1557 layer_factory.hpp:77] Creating layer conv3
I1027 21:02:57.833178  1557 net.cpp:84] Creating Layer conv3
I1027 21:02:57.833201  1557 net.cpp:406] conv3 <- pool2
I1027 21:02:57.833235  1557 net.cpp:380] conv3 -> conv3
I1027 21:02:57.833724  1557 net.cpp:122] Setting up conv3
I1027 21:02:57.833752  1557 net.cpp:129] Top shape: 1 50 3 3 (450)
I1027 21:02:57.833786  1557 net.cpp:137] Memory required for data: 2899000
I1027 21:02:57.833837  1557 layer_factory.hpp:77] Creating layer pool3
I1027 21:02:57.833874  1557 net.cpp:84] Creating Layer pool3
I1027 21:02:57.833899  1557 net.cpp:406] pool3 <- conv3
I1027 21:02:57.833931  1557 net.cpp:380] pool3 -> pool3
I1027 21:02:57.833977  1557 net.cpp:122] Setting up pool3
I1027 21:02:57.834002  1557 net.cpp:129] Top shape: 1 50 2 2 (200)
I1027 21:02:57.834033  1557 net.cpp:137] Memory required for data: 2899800
I1027 21:02:57.834058  1557 layer_factory.hpp:77] Creating layer ip1
I1027 21:02:57.834091  1557 net.cpp:84] Creating Layer ip1
I1027 21:02:57.834115  1557 net.cpp:406] ip1 <- pool3
I1027 21:02:57.834146  1557 net.cpp:380] ip1 -> ip1
I1027 21:02:57.834956  1557 net.cpp:122] Setting up ip1
I1027 21:02:57.835003  1557 net.cpp:129] Top shape: 1 500 (500)
I1027 21:02:57.835042  1557 net.cpp:137] Memory required for data: 2901800
I1027 21:02:57.835093  1557 layer_factory.hpp:77] Creating layer relu1
I1027 21:02:57.835132  1557 net.cpp:84] Creating Layer relu1
I1027 21:02:57.835157  1557 net.cpp:406] relu1 <- ip1
I1027 21:02:57.835191  1557 net.cpp:367] relu1 -> ip1 (in-place)
I1027 21:02:57.835230  1557 net.cpp:122] Setting up relu1
I1027 21:02:57.835253  1557 net.cpp:129] Top shape: 1 500 (500)
I1027 21:02:57.835284  1557 net.cpp:137] Memory required for data: 2903800
I1027 21:02:57.835307  1557 layer_factory.hpp:77] Creating layer ip2
I1027 21:02:57.835392  1557 net.cpp:84] Creating Layer ip2
I1027 21:02:57.835417  1557 net.cpp:406] ip2 <- ip1
I1027 21:02:57.835448  1557 net.cpp:380] ip2 -> ip2
I1027 21:02:57.835525  1557 net.cpp:122] Setting up ip2
I1027 21:02:57.835552  1557 net.cpp:129] Top shape: 1 2 (2)
I1027 21:02:57.835582  1557 net.cpp:137] Memory required for data: 2903808
I1027 21:02:57.835639  1557 layer_factory.hpp:77] Creating layer prob
I1027 21:02:57.835675  1557 net.cpp:84] Creating Layer prob
I1027 21:02:57.835700  1557 net.cpp:406] prob <- ip2
I1027 21:02:57.835731  1557 net.cpp:380] prob -> prob
I1027 21:02:57.835777  1557 net.cpp:122] Setting up prob
I1027 21:02:57.835801  1557 net.cpp:129] Top shape: 1 2 (2)
I1027 21:02:57.835831  1557 net.cpp:137] Memory required for data: 2903816
I1027 21:02:57.835858  1557 net.cpp:200] prob does not need backward computation.
I1027 21:02:57.835929  1557 net.cpp:200] ip2 does not need backward computation.
I1027 21:02:57.835955  1557 net.cpp:200] relu1 does not need backward computation.
I1027 21:02:57.835980  1557 net.cpp:200] ip1 does not need backward computation.
…
