…
../../build/tools/caffe time -model deploy.prototxt -weights train_iter_1000.caffemodel -iterations 10

gaston@ML-Ubuntu-VB:~/caffe_repo/caffe/project/aros_y_rectangulos$ ../../build/tools/caffe time -model deploy.prototxt -weights train_iter_1000.caffemodel -iterations 10
I1016 11:20:43.099104  3712 caffe.cpp:352] Use CPU.
I1016 11:20:43.102301  3712 net.cpp:51] Initializing net from parameters: 
name: "AroRectNet"
state {
  phase: TRAIN
  level: 0
  stage: ""
}
layer {
  name: "data"
  type: "Input"
  top: "data"
  input_param {
    shape {
      dim: 1
      dim: 1
      dim: 200
      dim: 200
    }
  }
}
layer {
  name: "conv1"
  type: "Convolution"
  bottom: "data"
  top: "conv1"
  convolution_param {
    num_output: 40
    kernel_size: 7
    stride: 1
  }
}
layer {
  name: "pool1"
  type: "Pooling"
  bottom: "conv1"
  top: "pool1"
  pooling_param {
    pool: MAX
    kernel_size: 2
    stride: 2
  }
}
layer {
  name: "conv2"
  type: "Convolution"
  bottom: "pool1"
  top: "conv2"
  convolution_param {
    num_output: 50
    kernel_size: 5
    stride: 1
  }
}
layer {
  name: "pool2"
  type: "Pooling"
  bottom: "conv2"
  top: "pool2"
  pooling_param {
    pool: MAX
    kernel_size: 2
    stride: 2
  }
}
layer {
  name: "ip1"
  type: "InnerProduct"
  bottom: "pool2"
  top: "ip1"
  inner_product_param {
    num_output: 500
  }
}
layer {
  name: "relu1"
  type: "ReLU"
  bottom: "ip1"
  top: "ip1"
}
layer {
  name: "ip2"
  type: "InnerProduct"
  bottom: "ip1"
  top: "ip2"
  inner_product_param {
    num_output: 2
  }
}
layer {
  name: "prob"
  type: "Softmax"
  bottom: "ip2"
  top: "prob"
}
I1016 11:20:43.102438  3712 layer_factory.hpp:77] Creating layer data
I1016 11:20:43.102452  3712 net.cpp:84] Creating Layer data
I1016 11:20:43.102460  3712 net.cpp:380] data -> data
I1016 11:20:43.102486  3712 net.cpp:122] Setting up data
I1016 11:20:43.102499  3712 net.cpp:129] Top shape: 1 1 200 200 (40000)
I1016 11:20:43.102504  3712 net.cpp:137] Memory required for data: 160000
I1016 11:20:43.102509  3712 layer_factory.hpp:77] Creating layer conv1
I1016 11:20:43.102517  3712 net.cpp:84] Creating Layer conv1
I1016 11:20:43.102522  3712 net.cpp:406] conv1 <- data
I1016 11:20:43.102530  3712 net.cpp:380] conv1 -> conv1
I1016 11:20:43.102622  3712 net.cpp:122] Setting up conv1
I1016 11:20:43.102677  3712 net.cpp:129] Top shape: 1 40 194 194 (1505440)
I1016 11:20:43.102681  3712 net.cpp:137] Memory required for data: 6181760
I1016 11:20:43.102696  3712 layer_factory.hpp:77] Creating layer pool1
I1016 11:20:43.102704  3712 net.cpp:84] Creating Layer pool1
I1016 11:20:43.102706  3712 net.cpp:406] pool1 <- conv1
I1016 11:20:43.102710  3712 net.cpp:380] pool1 -> pool1
I1016 11:20:43.102725  3712 net.cpp:122] Setting up pool1
I1016 11:20:43.102730  3712 net.cpp:129] Top shape: 1 40 97 97 (376360)
I1016 11:20:43.102732  3712 net.cpp:137] Memory required for data: 7687200
I1016 11:20:43.102735  3712 layer_factory.hpp:77] Creating layer conv2
I1016 11:20:43.102741  3712 net.cpp:84] Creating Layer conv2
I1016 11:20:43.102743  3712 net.cpp:406] conv2 <- pool1
I1016 11:20:43.102747  3712 net.cpp:380] conv2 -> conv2
I1016 11:20:43.102847  3712 net.cpp:122] Setting up conv2
I1016 11:20:43.102854  3712 net.cpp:129] Top shape: 1 50 93 93 (432450)
I1016 11:20:43.102856  3712 net.cpp:137] Memory required for data: 9417000
I1016 11:20:43.102999  3712 layer_factory.hpp:77] Creating layer pool2
I1016 11:20:43.103008  3712 net.cpp:84] Creating Layer pool2
I1016 11:20:43.103011  3712 net.cpp:406] pool2 <- conv2
I1016 11:20:43.103016  3712 net.cpp:380] pool2 -> pool2
I1016 11:20:43.103024  3712 net.cpp:122] Setting up pool2
I1016 11:20:43.103029  3712 net.cpp:129] Top shape: 1 50 47 47 (110450)
I1016 11:20:43.103031  3712 net.cpp:137] Memory required for data: 9858800
I1016 11:20:43.103034  3712 layer_factory.hpp:77] Creating layer ip1
I1016 11:20:43.103040  3712 net.cpp:84] Creating Layer ip1
I1016 11:20:43.103044  3712 net.cpp:406] ip1 <- pool2
I1016 11:20:43.103047  3712 net.cpp:380] ip1 -> ip1
I1016 11:20:43.489259  3712 net.cpp:122] Setting up ip1
I1016 11:20:43.489327  3712 net.cpp:129] Top shape: 1 500 (500)
I1016 11:20:43.489331  3712 net.cpp:137] Memory required for data: 9860800
I1016 11:20:43.489344  3712 layer_factory.hpp:77] Creating layer relu1
I1016 11:20:43.489351  3712 net.cpp:84] Creating Layer relu1
I1016 11:20:43.489356  3712 net.cpp:406] relu1 <- ip1
I1016 11:20:43.489361  3712 net.cpp:367] relu1 -> ip1 (in-place)
I1016 11:20:43.489390  3712 net.cpp:122] Setting up relu1
I1016 11:20:43.489394  3712 net.cpp:129] Top shape: 1 500 (500)
I1016 11:20:43.489397  3712 net.cpp:137] Memory required for data: 9862800
I1016 11:20:43.489399  3712 layer_factory.hpp:77] Creating layer ip2
I1016 11:20:43.489403  3712 net.cpp:84] Creating Layer ip2
I1016 11:20:43.489406  3712 net.cpp:406] ip2 <- ip1
I1016 11:20:43.489523  3712 net.cpp:380] ip2 -> ip2
I1016 11:20:43.489538  3712 net.cpp:122] Setting up ip2
I1016 11:20:43.489542  3712 net.cpp:129] Top shape: 1 2 (2)
I1016 11:20:43.489544  3712 net.cpp:137] Memory required for data: 9862808
I1016 11:20:43.489549  3712 layer_factory.hpp:77] Creating layer prob
I1016 11:20:43.489555  3712 net.cpp:84] Creating Layer prob
I1016 11:20:43.489558  3712 net.cpp:406] prob <- ip2
I1016 11:20:43.489562  3712 net.cpp:380] prob -> prob
I1016 11:20:43.489567  3712 net.cpp:122] Setting up prob
I1016 11:20:43.489572  3712 net.cpp:129] Top shape: 1 2 (2)
I1016 11:20:43.489573  3712 net.cpp:137] Memory required for data: 9862816
I1016 11:20:43.489576  3712 net.cpp:200] prob does not need backward computation.
I1016 11:20:43.489583  3712 net.cpp:200] ip2 does not need backward computation.
I1016 11:20:43.489585  3712 net.cpp:200] relu1 does not need backward computation.
I1016 11:20:43.489588  3712 net.cpp:200] ip1 does not need backward computation.
…
