…
I1016 12:39:45.378849  4599 net.cpp:294] The NetState phase (0) differed from the phase (1) specified by a rule in layer accuracy
I1016 12:39:45.378970  4599 net.cpp:51] Initializing net from parameters: 
name: "CIFAR10_quick"
state {
  phase: TRAIN
  level: 0
  stage: ""
}
layer {
  name: "cifar"
  type: "Data"
  top: "data"
  top: "label"
  include {
    phase: TRAIN
  }
  transform_param {
    mean_file: "examples/cifar10/mean.binaryproto"
  }
  data_param {
    source: "examples/cifar10/cifar10_train_lmdb"
    batch_size: 100
    backend: LMDB
  }
}
layer {
  name: "conv1"
  type: "Convolution"
  bottom: "data"
  top: "conv1"
  param {
    lr_mult: 1
  }
  param {
    lr_mult: 2
  }
  convolution_param {
    num_output: 32
    pad: 2
    kernel_size: 5
    stride: 1
    weight_filler {
      type: "gaussian"
      std: 0.0001
    }
    bias_filler {
      type: "constant"
    }
  }
}
layer {
  name: "pool1"
  type: "Pooling"
  bottom: "conv1"
  top: "pool1"
  pooling_param {
    pool: MAX
    kernel_size: 3
    stride: 2
  }
}
layer {
  name: "relu1"
  type: "ReLU"
  bottom: "pool1"
  top: "pool1"
}
layer {
  name: "conv2"
  type: "Convolution"
  bottom: "pool1"
  top: "conv2"
  param {
    lr_mult: 1
  }
  param {
    lr_mult: 2
  }
  convolution_param {
    num_output: 32
    pad: 2
    kernel_size: 5
    stride: 1
    weight_filler {
      type: "gaussian"
      std: 0.01
    }
    bias_filler {
      type: "constant"
    }
  }
}
layer {
  name: "relu2"
  type: "ReLU"
  bottom: "conv2"
  top: "conv2"
}
layer {
  name: "pool2"
  type: "Pooling"
  bottom: "conv2"
  top: "pool2"
  pooling_param {
    pool: AVE
    kernel_size: 3
    stride: 2
  }
}
layer {
  name: "conv3"
  type: "Convolution"
  bottom: "pool2"
  top: "conv3"
  param {
    lr_mult: 1
  }
  param {
    lr_mult: 2
  }
  convolution_param {
    num_output: 64
    pad: 2
    kernel_size: 5
    stride: 1
    weight_filler {
      type: "gaussian"
      std: 0.01
    }
    bias_filler {
      type: "constant"
    }
  }
}
layer {
  name: "relu3"
  type: "ReLU"
  bottom: "conv3"
  top: "conv3"
}
layer {
  name: "pool3"
  type: "Pooling"
  bottom: "conv3"
  top: "pool3"
  pooling_param {
    pool: AVE
    kernel_size: 3
    stride: 2
  }
}
layer {
  name: "ip1"
  type: "InnerProduct"
  bottom: "pool3"
  top: "ip1"
  param {
    lr_mult: 1
  }
  param {
    lr_mult: 2
  }
  inner_product_param {
    num_output: 64
    weight_filler {
      type: "gaussian"
      std: 0.1
    }
    bias_filler {
      type: "constant"
    }
  }
}
layer {
  name: "ip2"
  type: "InnerProduct"
  bottom: "ip1"
  top: "ip2"
  param {
    lr_mult: 1
  }
  param {
    lr_mult: 2
  }
  inner_product_param {
    num_output: 10
    weight_filler {
      type: "gaussian"
      std: 0.1
    }
    bias_filler {
      type: "constant"
    }
  }
}
layer {
  name: "loss"
  type: "SoftmaxWithLoss"
  bottom: "ip2"
  bottom: "label"
  top: "loss"
}
I1016 12:39:45.385423  4599 layer_factory.hpp:77] Creating layer cifar
I1016 12:39:45.385573  4599 db_lmdb.cpp:35] Opened lmdb examples/cifar10/cifar10_train_lmdb
I1016 12:39:45.385629  4599 net.cpp:84] Creating Layer cifar
I1016 12:39:45.385797  4599 net.cpp:380] cifar -> data
I1016 12:39:45.385844  4599 net.cpp:380] cifar -> label
I1016 12:39:45.385882  4599 data_transformer.cpp:25] Loading mean file from: examples/cifar10/mean.binaryproto
I1016 12:39:45.385977  4599 data_layer.cpp:45] output data size: 100,3,32,32
I1016 12:39:45.386116  4599 net.cpp:122] Setting up cifar
I1016 12:39:45.386155  4599 net.cpp:129] Top shape: 100 3 32 32 (307200)
I1016 12:39:45.386322  4599 net.cpp:129] Top shape: 100 (100)
I1016 12:39:45.386349  4599 net.cpp:137] Memory required for data: 1229200
I1016 12:39:45.386380  4599 layer_factory.hpp:77] Creating layer conv1
I1016 12:39:45.386417  4599 net.cpp:84] Creating Layer conv1
I1016 12:39:45.386447  4599 net.cpp:406] conv1 <- data
I1016 12:39:45.386482  4599 net.cpp:380] conv1 -> conv1
I1016 12:39:45.386559  4599 net.cpp:122] Setting up conv1
I1016 12:39:45.386592  4599 net.cpp:129] Top shape: 100 32 32 32 (3276800)
I1016 12:39:45.386620  4599 net.cpp:137] Memory required for data: 14336400
I1016 12:39:45.386792  4599 layer_factory.hpp:77] Creating layer pool1
I1016 12:39:45.386833  4599 net.cpp:84] Creating Layer pool1
I1016 12:39:45.386862  4599 net.cpp:406] pool1 <- conv1
I1016 12:39:45.386893  4599 net.cpp:380] pool1 -> pool1
I1016 12:39:45.386931  4599 net.cpp:122] Setting up pool1
I1016 12:39:45.386961  4599 net.cpp:129] Top shape: 100 32 16 16 (819200)
I1016 12:39:45.386988  4599 net.cpp:137] Memory required for data: 17613200
I1016 12:39:45.387015  4599 layer_factory.hpp:77] Creating layer relu1
I1016 12:39:45.387043  4599 net.cpp:84] Creating Layer relu1
I1016 12:39:45.387070  4599 net.cpp:406] relu1 <- pool1
I1016 12:39:45.387099  4599 net.cpp:367] relu1 -> pool1 (in-place)
I1016 12:39:45.387128  4599 net.cpp:122] Setting up relu1
I1016 12:39:45.387368  4599 net.cpp:129] Top shape: 100 32 16 16 (819200)
I1016 12:39:45.387596  4599 net.cpp:137] Memory required for data: 20890000
I1016 12:39:45.387787  4599 layer_factory.hpp:77] Creating layer conv2
I1016 12:39:45.387960  4599 net.cpp:84] Creating Layer conv2
I1016 12:39:45.388098  4599 net.cpp:406] conv2 <- pool1
I1016 12:39:45.388315  4599 net.cpp:380] conv2 -> conv2
I1016 12:39:45.388897  4599 net.cpp:122] Setting up conv2
I1016 12:39:45.389078  4599 net.cpp:129] Top shape: 100 32 16 16 (819200)
I1016 12:39:45.389269  4599 net.cpp:137] Memory required for data: 24166800
I1016 12:39:45.389443  4599 layer_factory.hpp:77] Creating layer relu2
I1016 12:39:45.389617  4599 net.cpp:84] Creating Layer relu2
I1016 12:39:45.389917  4599 net.cpp:406] relu2 <- conv2
I1016 12:39:45.390090  4599 net.cpp:367] relu2 -> conv2 (in-place)
I1016 12:39:45.392040  4599 net.cpp:122] Setting up relu2
I1016 12:39:45.392057  4599 net.cpp:129] Top shape: 100 32 16 16 (819200)
I1016 12:39:45.392062  4599 net.cpp:137] Memory required for data: 27443600
I1016 12:39:45.392069  4599 layer_factory.hpp:77] Creating layer pool2
I1016 12:39:45.392078  4599 net.cpp:84] Creating Layer pool2
I1016 12:39:45.394572  4599 net.cpp:406] pool2 <- conv2
I1016 12:39:45.394606  4599 net.cpp:380] pool2 -> pool2
I1016 12:39:45.394623  4599 net.cpp:122] Setting up pool2
I1016 12:39:45.394631  4599 net.cpp:129] Top shape: 100 32 8 8 (204800)
I1016 12:39:45.394636  4599 net.cpp:137] Memory required for data: 28262800
I1016 12:39:45.394642  4599 layer_factory.hpp:77] Creating layer conv3
I1016 12:39:45.394655  4599 net.cpp:84] Creating Layer conv3
I1016 12:39:45.394795  4599 net.cpp:406] conv3 <- pool2
I1016 12:39:45.394804  4599 net.cpp:380] conv3 -> conv3
I1016 12:39:45.400380  4599 net.cpp:122] Setting up conv3
I1016 12:39:45.400483  4599 net.cpp:129] Top shape: 100 64 8 8 (409600)
I1016 12:39:45.400514  4599 net.cpp:137] Memory required for data: 29901200
I1016 12:39:45.400552  4599 layer_factory.hpp:77] Creating layer relu3
I1016 12:39:45.400588  4599 net.cpp:84] Creating Layer relu3
I1016 12:39:45.400619  4599 net.cpp:406] relu3 <- conv3
I1016 12:39:45.400650  4599 net.cpp:367] relu3 -> conv3 (in-place)
I1016 12:39:45.400802  4599 net.cpp:122] Setting up relu3
I1016 12:39:45.400835  4599 net.cpp:129] Top shape: 100 64 8 8 (409600)
I1016 12:39:45.400862  4599 net.cpp:137] Memory required for data: 31539600
I1016 12:39:45.401005  4599 layer_factory.hpp:77] Creating layer pool3
I1016 12:39:45.401039  4599 net.cpp:84] Creating Layer pool3
I1016 12:39:45.401068  4599 net.cpp:406] pool3 <- conv3
I1016 12:39:45.401124  4599 net.cpp:380] pool3 -> pool3
I1016 12:39:45.401332  4599 net.cpp:122] Setting up pool3
I1016 12:39:45.401367  4599 net.cpp:129] Top shape: 100 64 4 4 (102400)
I1016 12:39:45.401747  4599 net.cpp:137] Memory required for data: 31949200
I1016 12:39:45.401777  4599 layer_factory.hpp:77] Creating layer ip1
I1016 12:39:45.401813  4599 net.cpp:84] Creating Layer ip1
I1016 12:39:45.401844  4599 net.cpp:406] ip1 <- pool3
I1016 12:39:45.401873  4599 net.cpp:380] ip1 -> ip1
I1016 12:39:45.403838  4599 net.cpp:122] Setting up ip1
I1016 12:39:45.403908  4599 net.cpp:129] Top shape: 100 64 (6400)
I1016 12:39:45.403939  4599 net.cpp:137] Memory required for data: 31974800
I1016 12:39:45.403971  4599 layer_factory.hpp:77] Creating layer ip2
I1016 12:39:45.404006  4599 net.cpp:84] Creating Layer ip2
I1016 12:39:45.404036  4599 net.cpp:406] ip2 <- ip1
I1016 12:39:45.404067  4599 net.cpp:380] ip2 -> ip2
I1016 12:39:45.404114  4599 net.cpp:122] Setting up ip2
I1016 12:39:45.404146  4599 net.cpp:129] Top shape: 100 10 (1000)
I1016 12:39:45.404333  4599 net.cpp:137] Memory required for data: 31978800
I1016 12:39:45.404368  4599 layer_factory.hpp:77] Creating layer loss
I1016 12:39:45.404399  4599 net.cpp:84] Creating Layer loss
I1016 12:39:45.404426  4599 net.cpp:406] loss <- ip2
I1016 12:39:45.404454  4599 net.cpp:406] loss <- label
I1016 12:39:45.404486  4599 net.cpp:380] loss -> loss
I1016 12:39:45.404520  4599 layer_factory.hpp:77] Creating layer loss
…
I1016 12:39:45.405575  4599 solver.cpp:172] Creating test net (#0) specified by net file: examples/cifar10/cifar10_quick_train_test.prototxt
I1016 12:39:45.405632  4599 net.cpp:294] The NetState phase (1) differed from the phase (0) specified by a rule in layer cifar
I1016 12:39:45.405879  4599 net.cpp:51] Initializing net from parameters: 
name: "CIFAR10_quick"
state {
  phase: TEST
}
layer {
  name: "cifar"
  type: "Data"
  top: "data"
  top: "label"
  include {
    phase: TEST
  }
  transform_param {
    mean_file: "examples/cifar10/mean.binaryproto"
  }
  data_param {
    source: "examples/cifar10/cifar10_test_lmdb"
    batch_size: 100
    backend: LMDB
  }
}
layer {
  name: "conv1"
  type: "Convolution"
  bottom: "data"
  top: "conv1"
  param {
    lr_mult: 1
  }
  param {
    lr_mult: 2
  }
  convolution_param {
    num_output: 32
    pad: 2
    kernel_size: 5
    stride: 1
    weight_filler {
      type: "gaussian"
      std: 0.0001
    }
    bias_filler {
      type: "constant"
    }
  }
}
layer {
  name: "pool1"
  type: "Pooling"
  bottom: "conv1"
  top: "pool1"
  pooling_param {
    pool: MAX
    kernel_size: 3
    stride: 2
  }
}
layer {
  name: "relu1"
  type: "ReLU"
  bottom: "pool1"
  top: "pool1"
}
layer {
  name: "conv2"
  type: "Convolution"
  bottom: "pool1"
  top: "conv2"
  param {
    lr_mult: 1
  }
  param {
    lr_mult: 2
  }
  convolution_param {
    num_output: 32
    pad: 2
    kernel_size: 5
    stride: 1
    weight_filler {
      type: "gaussian"
      std: 0.01
    }
    bias_filler {
      type: "constant"
    }
  }
}
layer {
  name: "relu2"
  type: "ReLU"
  bottom: "conv2"
  top: "conv2"
}
layer {
  name: "pool2"
  type: "Pooling"
  bottom: "conv2"
  top: "pool2"
  pooling_param {
    pool: AVE
    kernel_size: 3
    stride: 2
  }
}
layer {
  name: "conv3"
  type: "Convolution"
  bottom: "pool2"
  top: "conv3"
  param {
    lr_mult: 1
  }
  param {
    lr_mult: 2
  }
  convolution_param {
    num_output: 64
    pad: 2
    kernel_size: 5
    stride: 1
    weight_filler {
      type: "gaussian"
      std: 0.01
    }
    bias_filler {
      type: "constant"
    }
  }
}
layer {
  name: "relu3"
  type: "ReLU"
  bottom: "conv3"
  top: "conv3"
}
layer {
  name: "pool3"
  type: "Pooling"
  bottom: "conv3"
  top: "pool3"
  pooling_param {
    pool: AVE
    kernel_size: 3
    stride: 2
  }
}
layer {
  name: "ip1"
  type: "InnerProduct"
  bottom: "pool3"
  top: "ip1"
  param {
    lr_mult: 1
  }
  param {
    lr_mult: 2
  }
  inner_product_param {
    num_output: 64
    weight_filler {
      type: "gaussian"
      std: 0.1
    }
    bias_filler {
      type: "constant"
    }
  }
}
layer {
  name: "ip2"
  type: "InnerProduct"
  bottom: "ip1"
  top: "ip2"
  param {
    lr_mult: 1
  }
  param {
    lr_mult: 2
  }
  inner_product_param {
    num_output: 10
    weight_filler {
      type: "gaussian"
      std: 0.1
    }
    bias_filler {
      type: "constant"
    }
  }
}
layer {
  name: "accuracy"
  type: "Accuracy"
  bottom: "ip2"
  bottom: "label"
  top: "accuracy"
  include {
    phase: TEST
  }
}
layer {
  name: "loss"
  type: "SoftmaxWithLoss"
  bottom: "ip2"
  bottom: "label"
  top: "loss"
}
I1016 12:39:45.408603  4599 layer_factory.hpp:77] Creating layer cifar
I1016 12:39:45.408859  4599 db_lmdb.cpp:35] Opened lmdb examples/cifar10/cifar10_test_lmdb
I1016 12:39:45.412842  4599 net.cpp:84] Creating Layer cifar
I1016 12:39:45.412925  4599 net.cpp:380] cifar -> data
I1016 12:39:45.412981  4599 net.cpp:380] cifar -> label
I1016 12:39:45.413027  4599 data_transformer.cpp:25] Loading mean file from: examples/cifar10/mean.binaryproto
I1016 12:39:45.413149  4599 data_layer.cpp:45] output data size: 100,3,32,32
I1016 12:39:45.413447  4599 net.cpp:122] Setting up cifar
I1016 12:39:45.413493  4599 net.cpp:129] Top shape: 100 3 32 32 (307200)
I1016 12:39:45.413525  4599 net.cpp:129] Top shape: 100 (100)
I1016 12:39:45.413553  4599 net.cpp:137] Memory required for data: 1229200
I1016 12:39:45.413583  4599 layer_factory.hpp:77] Creating layer label_cifar_1_split
I1016 12:39:45.413619  4599 net.cpp:84] Creating Layer label_cifar_1_split
I1016 12:39:45.413650  4599 net.cpp:406] label_cifar_1_split <- label
I1016 12:39:45.418042  4599 net.cpp:380] label_cifar_1_split -> label_cifar_1_split_0
I1016 12:39:45.418325  4599 net.cpp:380] label_cifar_1_split -> label_cifar_1_split_1
I1016 12:39:45.418382  4599 net.cpp:122] Setting up label_cifar_1_split
I1016 12:39:45.418423  4599 net.cpp:129] Top shape: 100 (100)
I1016 12:39:45.418459  4599 net.cpp:129] Top shape: 100 (100)
I1016 12:39:45.418489  4599 net.cpp:137] Memory required for data: 1230000
I1016 12:39:45.418519  4599 layer_factory.hpp:77] Creating layer conv1
I1016 12:39:45.418635  4599 net.cpp:84] Creating Layer conv1
I1016 12:39:45.418893  4599 net.cpp:406] conv1 <- data
I1016 12:39:45.418931  4599 net.cpp:380] conv1 -> conv1
I1016 12:39:45.423559  4599 net.cpp:122] Setting up conv1
I1016 12:39:45.423780  4599 net.cpp:129] Top shape: 100 32 32 32 (3276800)
I1016 12:39:45.423830  4599 net.cpp:137] Memory required for data: 14337200
I1016 12:39:45.423877  4599 layer_factory.hpp:77] Creating layer pool1
I1016 12:39:45.423916  4599 net.cpp:84] Creating Layer pool1
I1016 12:39:45.423948  4599 net.cpp:406] pool1 <- conv1
I1016 12:39:45.423984  4599 net.cpp:380] pool1 -> pool1
I1016 12:39:45.424052  4599 net.cpp:122] Setting up pool1
I1016 12:39:45.424084  4599 net.cpp:129] Top shape: 100 32 16 16 (819200)
I1016 12:39:45.424113  4599 net.cpp:137] Memory required for data: 17614000
I1016 12:39:45.424140  4599 layer_factory.hpp:77] Creating layer relu1
I1016 12:39:45.424293  4599 net.cpp:84] Creating Layer relu1
I1016 12:39:45.424327  4599 net.cpp:406] relu1 <- pool1
I1016 12:39:45.424358  4599 net.cpp:367] relu1 -> pool1 (in-place)
I1016 12:39:45.424391  4599 net.cpp:122] Setting up relu1
I1016 12:39:45.424422  4599 net.cpp:129] Top shape: 100 32 16 16 (819200)
I1016 12:39:45.424449  4599 net.cpp:137] Memory required for data: 20890800
I1016 12:39:45.424477  4599 layer_factory.hpp:77] Creating layer conv2
I1016 12:39:45.424520  4599 net.cpp:84] Creating Layer conv2
I1016 12:39:45.424557  4599 net.cpp:406] conv2 <- pool1
I1016 12:39:45.424592  4599 net.cpp:380] conv2 -> conv2
I1016 12:39:45.425007  4599 net.cpp:122] Setting up conv2
I1016 12:39:45.425056  4599 net.cpp:129] Top shape: 100 32 16 16 (819200)
I1016 12:39:45.425086  4599 net.cpp:137] Memory required for data: 24167600
I1016 12:39:45.425122  4599 layer_factory.hpp:77] Creating layer relu2
I1016 12:39:45.425153  4599 net.cpp:84] Creating Layer relu2
I1016 12:39:45.425420  4599 net.cpp:406] relu2 <- conv2
I1016 12:39:45.425452  4599 net.cpp:367] relu2 -> conv2 (in-place)
I1016 12:39:45.425484  4599 net.cpp:122] Setting up relu2
I1016 12:39:45.425514  4599 net.cpp:129] Top shape: 100 32 16 16 (819200)
I1016 12:39:45.425542  4599 net.cpp:137] Memory required for data: 27444400
I1016 12:39:45.425570  4599 layer_factory.hpp:77] Creating layer pool2
I1016 12:39:45.425601  4599 net.cpp:84] Creating Layer pool2
I1016 12:39:45.425628  4599 net.cpp:406] pool2 <- conv2
I1016 12:39:45.425659  4599 net.cpp:380] pool2 -> pool2
I1016 12:39:45.425815  4599 net.cpp:122] Setting up pool2
I1016 12:39:45.425846  4599 net.cpp:129] Top shape: 100 32 8 8 (204800)
I1016 12:39:45.425874  4599 net.cpp:137] Memory required for data: 28263600
I1016 12:39:45.425901  4599 layer_factory.hpp:77] Creating layer conv3
I1016 12:39:45.425940  4599 net.cpp:84] Creating Layer conv3
I1016 12:39:45.425977  4599 net.cpp:406] conv3 <- pool2
I1016 12:39:45.426008  4599 net.cpp:380] conv3 -> conv3
I1016 12:39:45.441399  4599 net.cpp:122] Setting up conv3
I1016 12:39:45.441506  4599 net.cpp:129] Top shape: 100 64 8 8 (409600)
I1016 12:39:45.441536  4599 net.cpp:137] Memory required for data: 29902000
I1016 12:39:45.441575  4599 layer_factory.hpp:77] Creating layer relu3
I1016 12:39:45.441610  4599 net.cpp:84] Creating Layer relu3
I1016 12:39:45.441642  4599 net.cpp:406] relu3 <- conv3
I1016 12:39:45.441797  4599 net.cpp:367] relu3 -> conv3 (in-place)
I1016 12:39:45.441834  4599 net.cpp:122] Setting up relu3
I1016 12:39:45.441865  4599 net.cpp:129] Top shape: 100 64 8 8 (409600)
I1016 12:39:45.441893  4599 net.cpp:137] Memory required for data: 31540400
I1016 12:39:45.441921  4599 layer_factory.hpp:77] Creating layer pool3
I1016 12:39:45.441951  4599 net.cpp:84] Creating Layer pool3
I1016 12:39:45.441979  4599 net.cpp:406] pool3 <- conv3
I1016 12:39:45.442009  4599 net.cpp:380] pool3 -> pool3
I1016 12:39:45.442045  4599 net.cpp:122] Setting up pool3
I1016 12:39:45.442077  4599 net.cpp:129] Top shape: 100 64 4 4 (102400)
I1016 12:39:45.442104  4599 net.cpp:137] Memory required for data: 31950000
I1016 12:39:45.442132  4599 layer_factory.hpp:77] Creating layer ip1
I1016 12:39:45.442163  4599 net.cpp:84] Creating Layer ip1
I1016 12:39:45.442320  4599 net.cpp:406] ip1 <- pool3
I1016 12:39:45.442355  4599 net.cpp:380] ip1 -> ip1
I1016 12:39:45.447856  4599 net.cpp:122] Setting up ip1
I1016 12:39:45.447970  4599 net.cpp:129] Top shape: 100 64 (6400)
I1016 12:39:45.448007  4599 net.cpp:137] Memory required for data: 31975600
I1016 12:39:45.448042  4599 layer_factory.hpp:77] Creating layer ip2
I1016 12:39:45.448081  4599 net.cpp:84] Creating Layer ip2
I1016 12:39:45.448112  4599 net.cpp:406] ip2 <- ip1
I1016 12:39:45.448144  4599 net.cpp:380] ip2 -> ip2
I1016 12:39:45.450031  4599 net.cpp:122] Setting up ip2
I1016 12:39:45.450119  4599 net.cpp:129] Top shape: 100 10 (1000)
I1016 12:39:45.450151  4599 net.cpp:137] Memory required for data: 31979600
I1016 12:39:45.450634  4599 layer_factory.hpp:77] Creating layer ip2_ip2_0_split
I1016 12:39:45.450785  4599 net.cpp:84] Creating Layer ip2_ip2_0_split
I1016 12:39:45.450824  4599 net.cpp:406] ip2_ip2_0_split <- ip2
I1016 12:39:45.450858  4599 net.cpp:380] ip2_ip2_0_split -> ip2_ip2_0_split_0
I1016 12:39:45.450893  4599 net.cpp:380] ip2_ip2_0_split -> ip2_ip2_0_split_1
I1016 12:39:45.450927  4599 net.cpp:122] Setting up ip2_ip2_0_split
I1016 12:39:45.450958  4599 net.cpp:129] Top shape: 100 10 (1000)
I1016 12:39:45.450985  4599 net.cpp:129] Top shape: 100 10 (1000)
I1016 12:39:45.451014  4599 net.cpp:137] Memory required for data: 31987600
I1016 12:39:45.451041  4599 layer_factory.hpp:77] Creating layer accuracy
I1016 12:39:45.451072  4599 net.cpp:84] Creating Layer accuracy
I1016 12:39:45.451100  4599 net.cpp:406] accuracy <- ip2_ip2_0_split_0
I1016 12:39:45.451129  4599 net.cpp:406] accuracy <- label_cifar_1_split_0
I1016 12:39:45.451159  4599 net.cpp:380] accuracy -> accuracy
…
