

gaston@ML-Ubuntu-VB:~/caffe_repo/caffe/examples/cifar10$ ../../build/tools/caffe time -model cifar10_quick.prototxt -weights cifar10_quick_iter_4000.caffemodel -iterations 10
I1016 14:15:28.413231  4887 caffe.cpp:352] Use CPU.
I1016 14:15:28.438707  4887 net.cpp:51] Initializing net from parameters: 
name: "CIFAR10_quick_test"
state {
  phase: TRAIN
  level: 0
  stage: ""
}
layer {
  name: "data"
  type: "Input"
  top: "data"
  input_param {
    shape {
      dim: 1
      dim: 3
      dim: 32
      dim: 32
    }
  }
}
layer {
  name: "conv1"
  type: "Convolution"
  bottom: "data"
  top: "conv1"
  param {
    lr_mult: 1
  }
  param {
    lr_mult: 2
  }
  convolution_param {
    num_output: 32
    pad: 2
    kernel_size: 5
    stride: 1
  }
}
layer {
  name: "pool1"
  type: "Pooling"
  bottom: "conv1"
  top: "pool1"
  pooling_param {
    pool: MAX
    kernel_size: 3
    stride: 2
  }
}
layer {
  name: "relu1"
  type: "ReLU"
  bottom: "pool1"
  top: "pool1"
}
layer {
  name: "conv2"
  type: "Convolution"
  bottom: "pool1"
  top: "conv2"
  param {
    lr_mult: 1
  }
  param {
    lr_mult: 2
  }
  convolution_param {
    num_output: 32
    pad: 2
    kernel_size: 5
    stride: 1
  }
}
layer {
  name: "relu2"
  type: "ReLU"
  bottom: "conv2"
  top: "conv2"
}
layer {
  name: "pool2"
  type: "Pooling"
  bottom: "conv2"
  top: "pool2"
  pooling_param {
    pool: AVE
    kernel_size: 3
    stride: 2
  }
}
layer {
  name: "conv3"
  type: "Convolution"
  bottom: "pool2"
  top: "conv3"
  param {
    lr_mult: 1
  }
  param {
    lr_mult: 2
  }
  convolution_param {
    num_output: 64
    pad: 2
    kernel_size: 5
    stride: 1
  }
}
layer {
  name: "relu3"
  type: "ReLU"
  bottom: "conv3"
  top: "conv3"
}
layer {
  name: "pool3"
  type: "Pooling"
  bottom: "conv3"
  top: "pool3"
  pooling_param {
    pool: AVE
    kernel_size: 3
    stride: 2
  }
}
layer {
  name: "ip1"
  type: "InnerProduct"
  bottom: "pool3"
  top: "ip1"
  param {
    lr_mult: 1
  }
  param {
    lr_mult: 2
  }
  inner_product_param {
    num_output: 64
  }
}
layer {
  name: "ip2"
  type: "InnerProduct"
  bottom: "ip1"
  top: "ip2"
  param {
    lr_mult: 1
  }
  param {
    lr_mult: 2
  }
  inner_product_param {
    num_output: 10
  }
}
layer {
  name: "prob"
  type: "Softmax"
  bottom: "ip2"
  top: "prob"
}
I1016 14:15:28.441052  4887 layer_factory.hpp:77] Creating layer data
I1016 14:15:28.441069  4887 net.cpp:84] Creating Layer data
I1016 14:15:28.441078  4887 net.cpp:380] data -> data
I1016 14:15:28.441104  4887 net.cpp:122] Setting up data
I1016 14:15:28.441119  4887 net.cpp:129] Top shape: 1 3 32 32 (3072)
I1016 14:15:28.441123  4887 net.cpp:137] Memory required for data: 12288
I1016 14:15:28.441130  4887 layer_factory.hpp:77] Creating layer conv1
I1016 14:15:28.441140  4887 net.cpp:84] Creating Layer conv1
I1016 14:15:28.441146  4887 net.cpp:406] conv1 <- data
I1016 14:15:28.441154  4887 net.cpp:380] conv1 -> conv1
I1016 14:15:28.441460  4887 net.cpp:122] Setting up conv1
I1016 14:15:28.441474  4887 net.cpp:129] Top shape: 1 32 32 32 (32768)
I1016 14:15:28.441479  4887 net.cpp:137] Memory required for data: 143360
I1016 14:15:28.441496  4887 layer_factory.hpp:77] Creating layer pool1
I1016 14:15:28.441504  4887 net.cpp:84] Creating Layer pool1
I1016 14:15:28.441509  4887 net.cpp:406] pool1 <- conv1
I1016 14:15:28.441515  4887 net.cpp:380] pool1 -> pool1
I1016 14:15:28.441531  4887 net.cpp:122] Setting up pool1
I1016 14:15:28.441539  4887 net.cpp:129] Top shape: 1 32 16 16 (8192)
I1016 14:15:28.441542  4887 net.cpp:137] Memory required for data: 176128
I1016 14:15:28.441547  4887 layer_factory.hpp:77] Creating layer relu1
I1016 14:15:28.441552  4887 net.cpp:84] Creating Layer relu1
I1016 14:15:28.441556  4887 net.cpp:406] relu1 <- pool1
I1016 14:15:28.441562  4887 net.cpp:367] relu1 -> pool1 (in-place)
I1016 14:15:28.441568  4887 net.cpp:122] Setting up relu1
I1016 14:15:28.441575  4887 net.cpp:129] Top shape: 1 32 16 16 (8192)
I1016 14:15:28.441578  4887 net.cpp:137] Memory required for data: 208896
I1016 14:15:28.441583  4887 layer_factory.hpp:77] Creating layer conv2
I1016 14:15:28.441591  4887 net.cpp:84] Creating Layer conv2
I1016 14:15:28.441596  4887 net.cpp:406] conv2 <- pool1
I1016 14:15:28.441601  4887 net.cpp:380] conv2 -> conv2
I1016 14:15:28.441649  4887 net.cpp:122] Setting up conv2
I1016 14:15:28.441679  4887 net.cpp:129] Top shape: 1 32 16 16 (8192)
I1016 14:15:28.441684  4887 net.cpp:137] Memory required for data: 241664
I1016 14:15:28.441692  4887 layer_factory.hpp:77] Creating layer relu2
I1016 14:15:28.441699  4887 net.cpp:84] Creating Layer relu2
I1016 14:15:28.441702  4887 net.cpp:406] relu2 <- conv2
I1016 14:15:28.441709  4887 net.cpp:367] relu2 -> conv2 (in-place)
I1016 14:15:28.441715  4887 net.cpp:122] Setting up relu2
I1016 14:15:28.441720  4887 net.cpp:129] Top shape: 1 32 16 16 (8192)
I1016 14:15:28.441725  4887 net.cpp:137] Memory required for data: 274432
I1016 14:15:28.441728  4887 layer_factory.hpp:77] Creating layer pool2
I1016 14:15:28.441733  4887 net.cpp:84] Creating Layer pool2
I1016 14:15:28.441737  4887 net.cpp:406] pool2 <- conv2
I1016 14:15:28.441742  4887 net.cpp:380] pool2 -> pool2
I1016 14:15:28.441751  4887 net.cpp:122] Setting up pool2
I1016 14:15:28.441756  4887 net.cpp:129] Top shape: 1 32 8 8 (2048)
I1016 14:15:28.441761  4887 net.cpp:137] Memory required for data: 282624
I1016 14:15:28.441764  4887 layer_factory.hpp:77] Creating layer conv3
I1016 14:15:28.441771  4887 net.cpp:84] Creating Layer conv3
I1016 14:15:28.441776  4887 net.cpp:406] conv3 <- pool2
I1016 14:15:28.441781  4887 net.cpp:380] conv3 -> conv3
I1016 14:15:28.441987  4887 net.cpp:122] Setting up conv3
I1016 14:15:28.442008  4887 net.cpp:129] Top shape: 1 64 8 8 (4096)
I1016 14:15:28.442013  4887 net.cpp:137] Memory required for data: 299008
I1016 14:15:28.442021  4887 layer_factory.hpp:77] Creating layer relu3
I1016 14:15:28.442028  4887 net.cpp:84] Creating Layer relu3
I1016 14:15:28.442034  4887 net.cpp:406] relu3 <- conv3
I1016 14:15:28.442039  4887 net.cpp:367] relu3 -> conv3 (in-place)
I1016 14:15:28.442044  4887 net.cpp:122] Setting up relu3
I1016 14:15:28.442059  4887 net.cpp:129] Top shape: 1 64 8 8 (4096)
I1016 14:15:28.442064  4887 net.cpp:137] Memory required for data: 315392
I1016 14:15:28.442067  4887 layer_factory.hpp:77] Creating layer pool3
I1016 14:15:28.442072  4887 net.cpp:84] Creating Layer pool3
I1016 14:15:28.442076  4887 net.cpp:406] pool3 <- conv3
I1016 14:15:28.442082  4887 net.cpp:380] pool3 -> pool3
I1016 14:15:28.442088  4887 net.cpp:122] Setting up pool3
I1016 14:15:28.442095  4887 net.cpp:129] Top shape: 1 64 4 4 (1024)
I1016 14:15:28.442098  4887 net.cpp:137] Memory required for data: 319488
I1016 14:15:28.442102  4887 layer_factory.hpp:77] Creating layer ip1
I1016 14:15:28.442109  4887 net.cpp:84] Creating Layer ip1
I1016 14:15:28.442113  4887 net.cpp:406] ip1 <- pool3
I1016 14:15:28.442119  4887 net.cpp:380] ip1 -> ip1
I1016 14:15:28.442204  4887 net.cpp:122] Setting up ip1
I1016 14:15:28.442211  4887 net.cpp:129] Top shape: 1 64 (64)
I1016 14:15:28.442215  4887 net.cpp:137] Memory required for data: 319744
I1016 14:15:28.442222  4887 layer_factory.hpp:77] Creating layer ip2
I1016 14:15:28.442229  4887 net.cpp:84] Creating Layer ip2
I1016 14:15:28.442232  4887 net.cpp:406] ip2 <- ip1
I1016 14:15:28.442239  4887 net.cpp:380] ip2 -> ip2
I1016 14:15:28.442248  4887 net.cpp:122] Setting up ip2
I1016 14:15:28.442255  4887 net.cpp:129] Top shape: 1 10 (10)
I1016 14:15:28.442258  4887 net.cpp:137] Memory required for data: 319784
I1016 14:15:28.442265  4887 layer_factory.hpp:77] Creating layer prob
I1016 14:15:28.442271  4887 net.cpp:84] Creating Layer prob
I1016 14:15:28.442276  4887 net.cpp:406] prob <- ip2
I1016 14:15:28.442281  4887 net.cpp:380] prob -> prob
I1016 14:15:28.442288  4887 net.cpp:122] Setting up prob
I1016 14:15:28.442293  4887 net.cpp:129] Top shape: 1 10 (10)
I1016 14:15:28.442428  4887 net.cpp:137] Memory required for data: 319824
I1016 14:15:28.442437  4887 net.cpp:200] prob does not need backward computation.
I1016 14:15:28.442445  4887 net.cpp:200] ip2 does not need backward computation.
I1016 14:15:28.442451  4887 net.cpp:200] ip1 does not need backward computation.
I1016 14:15:28.442454  4887 net.cpp:200] pool3 does not need backward computation.
…
